models/fashion_mnist_cnn_16_filters_64_batch.pth (torch, 854300 bytes, 10 tensors)

conv1.weight f4 [16, 1, 5, 5]
000000 e7 3a 03 be e1 5d 9a 3d 8f 11 09 3e 5f 8e b6 bd
       -0.12815438 0.07537437 0.13385604 -0.08913874
000010 09 39 0e bd b2 a7 3c 3c b4 5f 4f 3e f6 77 14 3e
       -0.03472236 0.011514591 0.20251352 0.14498886
000020 c4 0d 06 3b f2 19 12 be 9f bd 3c 3e df 20 0a 3e
       0.0020454982 -0.1426771 0.1843171 0.13489102
000030 5d 93 e8 3d 7a a3 b8 3d a4 04 08 3d ba 9b 09 3e
       0.11356232 0.09015556 0.03320755 0.13438311
000040 44 09 c1 3d ca 3d 42 3d 4b 87 2b 3e 4b 9f 88 3d
       0.094255954 0.047422208 0.16750829 0.06671008
000050 db 62 42 bd 7a a9 1e 3e 6a 37 12 3e 6d d4 02 3d
       -0.047457557 0.15494338 0.14278951 0.031940866
000060 91 0c 7e be 6c 0b c7 3d e0 5f 17 bd ed 7e 16 3e
       -0.24809481 0.097189754 -0.036956668 0.14696856
000070 d2 ab cb bc 1f 45 b3 bd 8d 9f 6a be 14 58 ad 3c
       -0.024862204 -0.08753418 -0.22912426 0.021160163
000080 92 73 08 be 58 90 d9 bd f4 b3 6e bd ad 71 d7 bc
       -0.13325337 -0.106232345 -0.058277085 -0.026299322
000090 73 65 46 3e d0 1f 77 3e 6e cd 86 3e 3a e3 86 3d
       0.19374637 0.2413323 0.26328605 0.06586309
0000a0 71 e0 dc bb 22 0e 69 be 32 3e 98 bd f8 ea 21 3e
       -0.0067406227 -0.22759297 -0.07433738 0.1581229
0000b0 0b 63 4b 3d 80 3f 29 be f6 4e a7 3d 13 66 1d 3e
       0.049655 -0.1652813 0.081693575 0.1537097
0000c0 71 4e 9a 3d b7 36 94 3d 0d 94 3a 3c 63 30 2c bc
       0.07534493 0.072369985 0.011387837 -0.010509583
0000d0 e7 44 68 3e 33 a6 60 bd 30 e4 96 bd ac 5d 68 3e
       0.22682534 -0.054846 -0.07367742 0.22691983
0000e0 37 72 e0 bd 36 52 c0 3d 48 15 37 3d 49 48 a3 be
       -0.10959285 0.093906805 0.04469803 -0.31891087
0000f0 f3 b3 cf 3d 11 a2 f3 3d 3e c7 12 3e b9 bf 54 be
       0.101417445 0.11896146 0.14333817 -0.20776261
000100 b4 ce 91 be f0 2c 79 3a d9 e0 21 3d 8f 68 64 3e
       -0.28478014 0.00095052924 0.039521072 0.22305511
000110 69 17 1e bd 47 08 14 bd 89 75 9b bd 7a df 11 3e
       -0.038596544 -0.036140706 -0.075907774 0.14245406
000120 38 0c 30 3d eb c2 ab 3d 54 ae 7d be f2 6f df bd
       0.042980403 0.08386787 -0.24773532 -0.10910024
000130 1c 0e 42 3d cd 34 25 3d c7 f3 a4 bc 13 04 9a bd
       0.047376737 0.040333558 -0.020135773 -0.07520308
000140 70 d4 65 3e 2c 2c 85 3e e0 2b b3 3d 12 db 5a 3e
       0.2244432 0.26010263 0.08748603 0.21372631
000150 f8 22 53 bd dc d9 91 bd d1 32 80 bd 31 0b 2b be
       -0.05154702 -0.071216315 -0.062596925 -0.16703488
000160 5c 93 0c 3e bf db 2a 3e e6 5f 96 bd 94 47 36 be
       0.13728088 0.16685389 -0.0734251 -0.17800742
000170 d1 e3 05 bd 0b ac 54 be bd 50 3b bd 17 e8 09 3c
       -0.032687966 -0.20768754 -0.045731295 0.008417151
000180 d6 5c fa bd a8 1e de bd 41 6b 18 be ab 4f c0 bd
       -0.12224738 -0.10845691 -0.14884664 -0.093901955
000190 fe 54 42 be 1b 16 3b be 0a 4f a4 3e 1b f9 2f 3e
       -0.18977734 -0.18270151 0.32091552 0.1718487
0001a0 84 10 e0 bd 47 da 86 be 7a 75 b4 3d 8b 3e 9a 3d
       -0.1094065 -0.26338407 0.088114694 0.075314604
0001b0 bb 4e 06 3d 71 be eb 3d b3 42 37 be 05 76 79 be
       0.032789927 0.11510933 -0.17896537 -0.24361427
0001c0 80 7e 2e 3d 7f 63 9f 3e 7d 3c 38 3d 85 2f 4b be
       0.04260111 0.31130597 0.04497956 -0.19842346
0001d0 cc 40 f3 bd bd 6c 1b be 63 dc ae 3e c1 14 f8 3d
       -0.118775934 -0.15178199 0.34152517 0.121133335
0001e0 94 fd 75 be 1c 25 61 3d 46 0c a3 bc 39 f0 5b 3e
       -0.24022514 0.05496703 -0.019903313 0.21478356
0001f0 03 e6 11 bd a9 3a 76 3d 19 7d 80 bd 4b a5 3a 3c
       -0.035619747 0.060114536 -0.062738605 0.011391948
000200 60 e2 82 3e c5 da 02 3e 49 48 d2 3c 9b 67 67 3d
       0.25563335 0.12778766 0.025669234 0.05649529
000210 32 34 1d be f3 4b 53 3e 06 d9 c9 bd 41 f1 7b 3e
       -0.15351942 0.20634441 -0.09855847 0.2460375
000220 b4 93 89 be de 3d 20 be a0 16 11 be 0e 85 34 be
       -0.268705 -0.156486 -0.14168787 -0.17628881
000230 45 4d 83 3e d0 4a 83 bd df c4 e6 bd 91 40 26 3e
       0.2564489 -0.06410754 -0.11268019 0.16235568
000240 04 08 33 3e d2 16 19 3e ae e4 00 be a0 28 6f be
       0.17483526 0.14950112 -0.12587234 -0.23355341
000250 a0 91 a9 3d c4 cc 14 be a6 c9 67 bc bc e0 ac 3e
       0.08279729 -0.14531237 -0.014147198 0.3376521
000260 ac a7 21 bd 50 22 71 be e7 d6 5d 3d 48 7b 4d bd
       -0.039466545 -0.23548245 0.054160025 -0.0501664
000270 a1 03 a0 3e c8 da b3 3c a5 e8 ca bc 72 fa 80 be
       0.3125277 0.021954909 -0.024769137 -0.25191075
000280 a3 d2 4d 3d 62 1e ae 3e 25 93 c9 bd ca 26 8a 3c
       0.050249707 0.34007555 -0.09842519 0.0168642
000290 13 91 a5 be 97 10 32 be 7a 34 d2 3d 2c 67 51 3e
       -0.32337245 -0.17389141 0.10263915 0.20449513
0002a0 5b 36 f1 bd d1 56 e7 3c 53 f4 90 bd 31 74 34 3e
       -0.117779456 0.02823964 -0.07077851 0.17622449
0002b0 8d 36 08 3e 7e 09 4b be 5a a2 fa bd a5 d3 ac be
       0.1330206 -0.1982784 -0.12237997 -0.33755222
0002c0 90 f8 43 be 65 07 f6 bc 24 19 b6 3e 00 32 3c 3e
       -0.19137788 -0.030032823 0.35566056 0.18378448
0002d0 53 73 ad bd 55 dc 8e 3e f8 f5 9e 3e 1d 23 81 3e
       -0.08469262 0.27902475 0.31047034 0.25222102
0002e0 da 3e 35 3e 34 70 17 bb a9 58 04 be 78 be 93 bd
       0.17699757 -0.002310765 -0.12924446 -0.072140634
0002f0 1b cb 88 be 42 b8 1c be 20 21 c4 3d ec 85 28 3e
       -0.26717457 -0.15304664 0.095766306 0.16457337
000300 0f 1f 38 3d 6b fd ae be 96 e6 78 be b8 a7 8c 3e
       0.044951495 -0.34177718 -0.24306712 0.2747171
000310 1d c6 1f bd a9 34 3a be 00 a0 84 bc 74 9f cf bd
       -0.039007295 -0.18184151 -0.016189575 -0.10137835
000320 29 ac 22 3e f9 2d 8c be 69 5d b7 3d 41 de 73 3d
       0.15885986 -0.27378824 0.089533634 0.05953813
000330 44 66 fa 3d 0e 85 64 3e f3 1e bc be 17 cf a8 3c
       0.12226537 0.22316381 -0.36742362 0.02060656
000340 ad 2b 33 be 3f 55 3b be e1 17 3e 3e e5 2a d1 bc
       -0.1749713 -0.18294238 0.18563797 -0.025533149
000350 e0 07 11 bc 57 3c 3d 3e f1 81 68 3d 42 b8 a5 3e
       -0.008851975 0.18480049 0.056764547 0.3236714
000360 28 ea b6 be e4 9c 37 be 43 17 59 3e 4d 1c 93 bc
       -0.35725522 -0.17930943 0.2120028 -0.01795783
000370 31 41 35 3e 8c 51 22 be e4 45 2c 3d 10 69 04 bd
       0.1770065 -0.1585142 0.04205884 -0.032326758
000380 98 b3 ae 3d 3f 7a f5 bb 95 8b 21 be f3 d5 05 bd
       0.085303485 -0.0074913795 -0.15775903 -0.03267474
000390 9d 64 53 bc 9e f2 73 be db a5 c8 3d f6 f3 f2 3d
       -0.012902406 -0.2382302 0.097972594 0.11862938
0003a0 6a ec 64 be 11 4c 05 be df 43 88 be 5f 6f 98 3e
       -0.2235581 -0.13017298 -0.26614282 0.2977247
0003b0 bc d0 47 be 23 3a 01 be f5 cc f7 bd 2a c1 e7 bd
       -0.1951322 -0.12619834 -0.12099639 -0.1131614
0003c0 2b e5 80 3e 49 68 37 3e 9b 2e 13 bc 3d 45 c8 3d
       0.2517484 0.17910875 -0.00898328 0.09778831
0003d0 b5 73 82 3d 1e 2a 91 3d dc 2b 0b 3e df 3a 96 bb
       0.063697256 0.07088111 0.1359095 -0.0045846547
0003e0 7a 52 a9 bd 12 c5 5b bd 4a 46 5c 3e 60 78 ac bd
       -0.08267684 -0.053654738 0.21511188 -0.08421397
0003f0 cd 7d d4 3c 82 25 28 be 6c bd 72 bd 92 0e cf bd
       0.025938893 -0.16420558 -0.059262678 -0.10110201

conv1.bias f4 [16]
000000 03 4f 94 be 6a 9c 6c 3b 60 6b f5 3c cd ec 3b be
       -0.2896653 0.0036103972 0.029958427 -0.18352051
000010 22 be 22 bb 43 c2 33 bd 5e 3d fd bc e5 23 61 bd
       -0.0024832566 -0.043886434 -0.030913051 -0.054965872
000020 2e 11 85 3b d1 19 71 be 9b 15 c6 be e6 58 25 bc
       0.004060886 -0.23545004 -0.3868836 -0.010091996
000030 74 06 08 be 5e c7 93 bc f1 55 dd bc 50 ab 5b be
       -0.13283712 -0.018039402 -0.02701852 -0.2145207

conv2.weight f4 [32, 16, 5, 5]
000000 1e 5a 17 3d 57 3b b8 3d 39 00 fd 3d 44 06 c7 3d
       0.036951177 0.08995693 0.12353558 0.09717992
000010 66 ce 0e 3c 4f ff 2e 3c d9 ba 29 3c 0a b8 c9 3d
       0.008716201 0.0106809875 0.010359489 0.09849556
000020 94 fc 0c 3e 41 1d 26 3d 2a 8d 90 bd c5 30 92 3b
       0.13768226 0.040555242 -0.07058175 0.00446138
000030 ab 8d 80 3d ee db 73 3d 26 68 95 3d 9d 95 a8 bd
       0.06277021 0.059535913 0.07295255 -0.082316615
000040 16 47 22 ba 1c 2b 0a 3d c2 38 0f 3e 9e c6 fe 3c
       -0.0006190402 0.03373252 0.13986495 0.031100567
000050 ad 13 25 3c bd c9 48 3c d6 ab ab 3d a0 67 4b 3d
       0.010075492 0.012255129 0.083823845 0.04965937
000060 79 9e 15 3e 54 2f fc 3b 90 b8 8c 3d d7 eb 44 3e
       0.14611234 0.0076960716 0.0687114 0.19230591
000070 02 ed 9c 3c b6 bf 01 bd da 26 9b bb f2 a5 a1 bc
       0.019155983 -0.03167697 -0.004734856 -0.01973245
000080 e5 46 06 3e 67 98 a6 3d 20 17 13 bd 27 ea 51 bd
       0.13112982 0.08134537 -0.035910726 -0.051248696
000090 47 67 14 3d f2 b0 58 3d c5 1d 9d bd ca ce ec 3c
       0.036231305 0.052903123 -0.07671694 0.028907198
0000a0 e3 66 cb bc 1b 53 39 3d 91 ff 84 bd e6 f8 96 bc
       -0.024829334 0.04524527 -0.06494058 -0.01842923
0000b0 b5 d2 3e bd bf 6c 55 bd ac 00 3c bc 96 92 fe 3d
       -0.046587665 -0.05210566 -0.01147477 0.12430303
0000c0 fd d5 bf 3b 9b 59 9b 3d 9a ae 88 bc 0a 2d ce bd
       0.005854367 0.0758545 -0.016684819 -0.10067184
0000d0 91 9d 86 3d 0a 70 2d 3e ac 44 df 3a 1d 85 a5 3c
       0.06573022 0.16937271 0.0017034016 0.020205075
0000e0 a2 c2 2b be 30 6c b8 bd 6f 05 46 3d e2 d6 da bd
       -0.16773465 -0.0900501 0.048345026 -0.10685517
0000f0 a2 e5 d3 3d ce ac 5c bc fa d9 55 be 49 8b 98 be
       0.10346533 -0.013468934 -0.20883933 -0.29793766
000100 e9 9a 29 be 5c 76 99 3c f8 8e ac bc 1e 52 97 be
       -0.16563 0.018733196 -0.021064267 -0.29554838
000110 bc 71 37 be 6a 27 bb bc d4 ce ef bc e3 4c 02 bd
       -0.1791448 -0.022845943 -0.029273428 -0.031811606
000120 d3 5e 2d bd a5 0b 4d be 77 fe 18 bd c0 07 2d bd
       -0.04232676 -0.20023973 -0.03735205 -0.04224372
000130 96 be 39 bc 23 e8 eb bc b2 f0 01 bd 93 b2 fa bc
       -0.011336943 -0.028797215 -0.031723686 -0.030602729
000140 4a 95 35 3d 09 b4 d2 3d f6 3c c0 3d 28 d5 c4 3d
       0.044331826 0.10288245 0.093866274 0.09610969
000150 38 d0 91 bd 1f 2a 10 3d fb ea 9f 3d 78 1f 96 3d
       -0.07119793 0.03519642 0.07808491 0.07330221
000160 97 f4 0f 3c af df dd bd e1 af eb 3c 83 91 79 bd
       0.008786342 -0.1083368 0.028770389 -0.060929786
000170 2d 0c 03 bd f4 4b 4b bd ca 09 9e bd 7c 47 a0 3d
       -0.031994034 -0.04963298 -0.07716711 0.078261346
000180 af ad 1c bb 3a 7e 0a bc 2b 79 59 3d 73 b9 65 3d
       -0.0023907234 -0.008452946 0.05309407 0.05608506
000190 2f 54 e7 bd 08 38 ba 3d 1b 4b 62 3d 12 27 70 bd
       -0.112953536 0.09092718 0.055247407 -0.05863101
0001a0 e0 53 a6 3d 80 aa 57 be 04 b8 76 bd e4 80 a1 bd
       0.08121467 -0.21061134 -0.060234085 -0.07885912
0001b0 f8 a2 15 3d 19 23 46 3c fc b0 78 be 50 24 02 be
       0.036532372 0.012093329 -0.24286264 -0.12709165
0001c0 92 69 9b bd 56 27 04 3e 1d c4 a6 3d 21 ad 8f bd
       -0.07588495 0.1290563 0.081428744 -0.070154436
0001d0 12 a4 28 bd b6 ae cc bd a3 4d f7 3d 3f e7 bf 3d
       -0.041172095 -0.09994261 0.12075355 0.093702786
0001e0 ab bf 94 bd ad 47 dd 3b 83 ea 10 bd d5 29 0c 3d
       -0.0726312 0.006752929 -0.035379898 0.03421958
0001f0 57 cc a1 3c 4e ad 1b 3d fa 49 63 3b 24 f6 e8 bd
       0.019750757 0.038007073 0.0034681545 -0.113750726
000200 11 69 ed 3b 2a 8a 5e bb 5c 1f ab bd e4 4f 94 3d
       0.007245191 -0.0033956864 -0.08355591 0.072418004
000210 d2 9a 84 bd 8a 2e 08 be b2 da 0b be 8b 82 0e 3d
       -0.06474842 -0.13299003 -0.13657644 0.034792464
000220 4e d0 3b 3e 1c 82 28 3d 71 25 91 be 97 d6 61 be
       0.1834118 0.041139707 -0.28348878 -0.22054516
000230 ad ec d3 bd da 7a c7 bd af cf 21 be 93 27 b4 be
       -0.10347877 -0.09740229 -0.15801881 -0.35186443
000240 04 35 6e be 62 bf 42 3d a2 8b 23 be 51 51 8d bd
       -0.23262411 0.047545798 -0.15971234 -0.069002755
000250 56 8a 81 be 3d 6f b6 bd 45 9c 3d 3d e8 7a 3e bd
       -0.25300854 -0.08907936 0.04629161 -0.04650393
000260 9f f1 b0 bb d6 6e 80 3d 89 c3 dc 3c 77 35 54 3d
       -0.005399897 0.0627114 0.026948707 0.0518088
000270 a1 87 d7 bd fa b9 d6 bd 56 e4 0b 3e 9e 70 b5 3b
       -0.10523916 -0.10484691 0.13661322 0.0055371067
000280 f5 0a b2 3d 21 f4 c8 3b 8f 84 c3 be 23 d2 39 be
       0.08693496 0.006132618 -0.38187072 -0.18146567
000290 b9 8f ee bd 13 0e 01 bd ae 00 39 3d 28 15 cb be
       -0.11648507 -0.031507563 0.045166664 -0.39664578
0002a0 7a fa b0 be 02 de 3c bd 86 87 0d be df 42 9c 3c
       -0.34566098 -0.04611016 -0.1382123 0.019074855
0002b0 63 ed 00 be d3 44 79 be a3 64 80 bd aa 3c 75 bd
       -0.12590556 -0.2434266 -0.06269195 -0.059872307
0002c0 ad 3d f9 ba ff de 70 bd ef e9 7a bd 04 47 10 be
       -0.0019015573 -0.058806416 -0.061258253 -0.1408959
0002d0 8f cb 7e 3c 00 b9 70 3e 0d 5d ee 3d 99 0b 14 be
       0.015551462 0.23508072 0.11638842 -0.14457549
0002e0 09 fb 5d be 9b ad a7 3d e7 d1 40 3e c4 e1 1a 3e
       -0.21677794 0.081874095 0.18830071 0.15125185
0002f0 8a 3f 41 be 20 95 2f bd 15 3f 24 be 9a 0f 90 be
       -0.18871894 -0.042866826 -0.16039689 -0.28136903
000300 85 a7 a0 bd ff ac e3 3c 41 7b 64 bd 5d 2c b9 3d
       -0.07844452 0.027792452 -0.055781607 0.09041665
000310 bb f5 c1 3d fd 6b 07 3e 53 26 af 3c 7f 17 b0 bd
       0.094706975 0.13224788 0.02138058 -0.085982315
000320 e4 4a 99 bc 16 20 b1 bc b0 30 0f be 88 a0 96 bd
       -0.018712468 -0.021621745 -0.13983417 -0.07354838
000330 ad 81 1e 3e dc 1f c5 bd f7 b7 33 be 39 f3 4c be
       0.15479155 -0.09625217 -0.17550646 -0.20014657
000340 fe ba 3d be 73 e4 bd 3c 2b 58 05 3e 69 88 74 3d
       -0.18528363 0.023180222 0.13021915 0.059700403
000350 e1 7a a6 3c dc 5b 9c be eb 19 f5 bc f2 da 9e 3d
       0.020322265 -0.30538833 -0.029919585 0.07756604
000360 99 5a ce 3c 69 73 8b bc d7 56 1d be 49 f4 57 bd
       0.025189685 -0.017022805 -0.15365158 -0.052723203
000370 63 07 f3 3d ad e4 bf bc d7 47 53 bd 6c 6f 4b be
       0.11866643 -0.02342447 -0.051582184 -0.19866723
000380 cf 47 d5 bd 18 cc 8c bb 43 1f 9e bd 7d 67 85 bd
       -0.10414087 -0.004296791 -0.077208064 -0.065138794
000390 25 e8 66 3d 03 2e 93 3d ad 83 64 bd f4 74 9c bc
       0.056373734 0.071865104 -0.05578964 -0.019098736
0003a0 cd 93 49 be 7f 9f a7 bd 66 06 ee bd 15 db 5a bd
       -0.19685288 -0.08184718 -0.11622314 -0.05343159
0003b0 65 3b f1 3d 66 b3 78 bd 60 36 b6 be 6c d4 56 be
       0.11778907 -0.060717963 -0.3558836 -0.2097947
0003c0 7e 44 91 3d b2 02 11 3e a8 89 87 3d 08 93 9b be
       0.07093142 0.14161184 0.06618053 -0.30385613
0003d0 8b 06 a3 bd 16 94 1a 3d 97 10 16 bc 3e 65 41 3d
       -0.07960232 0.037738882 -0.009159229 0.047215693
0003e0 6f 3a 6e be 1b 68 d4 bd ad b5 55 3d 29 88 c3 bc
       -0.23264478 -0.10371419 0.052175213 -0.023868637
0003f0 7b 09 3b 3d 11 aa 39 3d 41 c0 85 3d 6c 66 fd 3d
       0.04566334 0.045328204 0.0653081 0.12373051

conv2.bias f4 [32]
000000 8c 98 9d 3a 43 c3 ef bd 21 9e 00 3d f7 cb a6 3d
       0.0012023612 -0.11707165 0.031400803 0.08144372
000010 70 dc b0 ba 94 d5 fb bc 4a 04 5c bc bd 50 a9 bd
       -0.001349343 -0.03074149 -0.013428757 -0.08267353
000020 7d 8b 9d 3d 11 a6 05 bd 0d d7 6d bd 23 a3 9e 3d
       0.07692621 -0.032629076 -0.058066417 0.077459596
000030 1b 76 44 bd 48 60 be 3d d3 c4 a6 bd 4c fd 72 bd
       -0.047964197 0.09295708 -0.0814301 -0.059323594
000040 88 12 27 bd da ed 84 bd 6b c5 1c 3d 6f d3 e3 bd
       -0.040789157 -0.06490679 0.03827421 -0.11124312
000050 93 32 70 bc 16 45 27 3e b7 6e cd 3b 6f d6 b1 3d
       -0.014660495 0.16334948 0.0062693018 0.08683478
000060 8b a0 94 bd 23 26 7d 3d 0e 68 e4 3c 62 30 8d 3d
       -0.07257184 0.061803948 0.027881648 0.06893994
000070 9a c7 be 3a 12 de 5e be 45 2d 05 bc 44 3c df bc
       0.0014555336 -0.217644 -0.008128469 -0.027250417

fc1.weight f4 [120, 1568]
000000 3d 4a db bb 68 a6 89 bb 3b 6e a1 ba 10 51 87 bc
       -0.0066921995 -0.0042007454 -0.0012316176 -0.016518146
000010 a6 13 c2 bc 56 93 c3 bc 48 96 21 3c 1f 56 85 bc
       -0.02369101 -0.023873966 0.00986249 -0.016276417
000020 b5 f2 47 bb d9 58 7e bb fc 4f f5 bc c1 7f 99 3c
       -0.0030509655 -0.0038810282 -0.029945366 0.018737676
000030 84 11 82 3c af 57 ed bc d4 aa e0 bc 39 05 a0 bc
       0.015877493 -0.028972475 -0.027425207 -0.01953374
000040 ae d2 7f 3b c8 ca c3 37 77 a0 fb bc 42 85 29 3b
       0.0039035487 2.3340239e-05 -0.030716164 0.0025866781
000050 86 24 1e 3c 18 6c e1 3b 53 6b 3b 3c e2 da 4d b7
       0.009652263 0.006879341 0.011439162 -1.2269915e-05
000060 2e 46 2b 3c 47 45 fe bb e2 44 5a 3c 30 36 94 bc
       0.010453744 -0.0077597233 0.013322087 -0.018092245
000070 8e 64 e4 bb 55 1e 99 3c 62 0b fa bb 15 6e f3 ba
       -0.006969995 0.018691221 -0.0076307515 -0.0018572236
000080 11 ac 86 3c 4d 3c 65 bc a7 67 f3 bc da 23 55 bc
       0.01643947 -0.013991428 -0.029712511 -0.013009036
000090 03 9c 9f 39 3d af 85 3c 6f 78 7c 3c ba 1a cc bc
       0.0003044308 0.016318912 0.015409573 -0.024915088
0000a0 a6 9d 75 bc 18 2d a1 bc 03 e4 f0 bc dd 8b 4a bc
       -0.0149912 -0.019674823 -0.0294056 -0.012362448
0000b0 c6 73 5a 3b b6 3c 2c 3c f2 8f 4c 3b b9 22 1c 3c
       0.0033333167 0.0105125215 0.0031213728 0.009529763
0000c0 f8 37 bf bc 46 f6 e3 bc 61 7f a3 bc a0 15 52 3c
       -0.023342118 -0.027827393 -0.0199582 0.012822539
0000d0 d4 8f 85 3c df c1 f9 bc e7 c6 3f bb 6e 38 a4 bc
       0.016303934 -0.030487953 -0.0029262842 -0.020046439
0000e0 f6 8b c8 3a 46 46 6d 3c 87 12 ce bc cb 14 08 3c
       0.0015300501 0.0144820865 -0.025155319 0.008305739
0000f0 6f a5 84 bc 93 a6 27 3c a8 1d 92 bc c6 46 fd 3b
       -0.016192166 0.0102325855 -0.017836407 0.007729384
000100 41 74 10 bc 9a 18 82 3c dc 6f c7 3b f2 e9 4d bc
       -0.00881678 0.015880872 0.0060863327 -0.012567984
000110 6e 54 39 3c c4 48 e9 bc 39 f1 9b bc 4c 4c 54 3c
       0.0113116335 -0.02847708 -0.019035922 0.012957644
000120 44 1b 9d 3c 54 fd ef 3b 60 94 f8 bc ee 40 0a 3c
       0.01917804 0.0073239002 -0.030344188 0.008438332
000130 7d 04 5f 3c e5 c2 82 3b 53 3f fb bb d8 6f d0 3b
       0.01361191 0.0039905184 -0.007667461 0.006360989
000140 bd c7 d0 bb 02 94 ab bc 42 de 5a 3c ff 43 82 bc
       -0.006371467 -0.020944599 0.013358654 -0.015901564
000150 cf 38 27 3b 21 df 4b 3c 4a ef d5 bc d8 d0 77 bc
       0.0025516038 0.012443335 -0.026115078 -0.015125476
000160 64 c6 30 bc ec 93 cf bc 64 53 8b bb 62 bb d0 bc
       -0.0107894875 -0.02533909 -0.0042518843 -0.025479976
000170 8d f5 a4 3b e2 79 be bc 12 f6 c0 3b dd 3e 56 bc
       0.0050341547 -0.023251478 0.005888709 -0.013076511
000180 7c 14 a0 bc fe 55 ce 3b 1a b0 85 ba 42 df 77 bb
       -0.019541018 0.006296872 -0.0010199577 -0.003782228
000190 95 31 79 3c cb 79 8f 3c 9d aa 92 3c 08 ce ea bc
       0.015209575 0.01751413 0.01790362 -0.028662696
0001a0 d1 d4 54 3c 1c 96 c6 bc b4 be 34 bb 14 1d 53 3b
       0.0129901925 -0.0242415 -0.0027579488 0.0032213377
0001b0 84 8d 34 3c ed 8c df bc 98 99 11 3c 2e 81 33 3b
       0.011020068 -0.027288878 0.008886717 0.002739023
0001c0 82 0e a5 bc ca 5a 9c 3c 5f 9f 94 bb 1e 33 2c 3c
       -0.02014852 0.01908626 -0.0045356 0.010510234
0001d0 00 41 c6 ba 8a 4a d4 bc d7 3b 12 bc 6a c4 82 3b
       -0.0015125573 -0.02591445 -0.0089254 0.0039906995
0001e0 4e 6d 3a 3a f2 67 ef bc 61 2b 99 bc 59 b2 ce bc
       0.00071116246 -0.02922437 -0.018697442 -0.025231527
0001f0 cc 6c 77 bb 8a 3d 23 3a a0 cd f1 bc d7 1b d6 bc
       -0.0037754057 0.00062271266 -0.029516995 -0.026136322
000200 bc 5e 86 3c 9d a4 ba 3b 27 58 5c bc 52 b0 99 bc
       0.016402595 0.005695893 -0.0134487515 -0.018760834
000210 34 a5 4a bc 34 79 75 3c b1 84 24 3c 88 3e c3 bc
       -0.012368489 0.01498251 0.010041402 -0.023833528
000220 e5 11 94 bc e7 a9 e7 bc eb ba 80 3c 5b 18 59 3c
       -0.018074939 -0.028279258 0.01571413 0.013250436
000230 e7 f2 54 3c f8 29 87 3c a7 6c f3 bb 9f 1e 82 3c
       0.012997366 0.016499504 -0.007428724 0.015883742
000240 19 fb c2 bb 06 88 03 3c 55 82 f8 bc d2 f3 79 3c
       -0.0059503433 0.008028036 -0.030335585 0.015255885
000250 7f da 24 bc a4 69 44 3c bf b2 01 39 ec b9 31 3c
       -0.010061859 0.011988077 0.00012368987 0.01084755
000260 15 ff e1 bc e2 ea 80 bc 50 7f 34 bc a3 cc b3 bc
       -0.027587453 -0.015737 -0.011016682 -0.021948164
000270 80 75 b5 3b 49 e1 9b bb 70 b6 14 3c 0c d6 93 3c
       0.0055376887 -0.0047570807 0.0090767 0.018046401
000280 a0 de b0 3b 53 a1 47 3c 95 e0 8a 3c d5 80 96 3c
       0.0053976327 0.012184459 0.016952792 0.018371979
000290 72 4f 6f 3c a3 57 8f bc e7 11 48 bc 3e cc 18 3c
       0.014606344 -0.017497843 -0.0122112995 0.009326039
0002a0 5c 82 34 ba 43 da 4f 3c 64 0c e7 b8 b9 e1 2a 3c
       -0.000688588 0.012686315 -0.00011017246 0.010429793
0002b0 8d fe 49 bc 9f a4 93 3c 2c 51 32 bb 30 5c 9c 3c
       -0.012328756 0.018022833 -0.0027209027 0.019086927
0002c0 a0 4e 72 bc 61 23 f9 3b b4 fa 92 bb 69 20 81 3c
       -0.0147892535 0.0076030944 -0.0044854525 0.015762525
0002d0 50 6b af bc ec a1 df bc 58 8f 70 3c aa c0 54 bc
       -0.021413475 -0.02729889 0.014682613 -0.012985388
0002e0 c6 f9 94 3b 93 ed 12 3c 0b ee ad bc a3 6a 4c bb
       0.004546377 0.008967775 -0.021231672 -0.003119149
0002f0 fa 97 c4 bc cc c9 ef bb bd b9 d5 3a 38 8b d4 bc
       -0.02399825 -0.0073177572 0.0016305965 -0.02594529
000300 01 16 5e 3c 3c b1 14 bc e0 64 e9 bb f3 00 f1 3b
       0.013555051 -0.009075459 -0.007122621 0.0073548495
000310 ac 2f 31 bc a9 06 c8 bc 15 39 8e bc b5 cf 93 3a
       -0.0108145885 -0.024417238 -0.017361203 0.0011277111
000320 d0 65 96 3a 71 47 68 bc a2 b2 b3 bc f9 ff 13 bc
       0.0011474434 -0.014177189 -0.021935765 -0.009033197
000330 88 eb d1 bc 48 d6 f2 ba e2 76 c4 bc 37 d0 7e bc
       -0.025625005 -0.0018526996 -0.023982469 -0.015552572
000340 38 d7 aa bc 80 0e 3e 39 d4 aa 9f bc 49 6e 33 3c
       -0.020854577 0.00018125214 -0.019490637 0.010951587
000350 86 1c ed ba e0 4d fe 3b d1 dc d2 bc c4 c1 b6 3b
       -0.0018090166 0.0077607483 -0.02574006 0.005577298
000360 00 0a 2e b8 5e 8f 4c bc 0a e7 62 bc 8c b5 9c bc
       -4.1494146e-05 -0.012485353 -0.013849029 -0.019129537
000370 c9 37 94 bc 12 34 55 bc b3 1f 7c 3b fa 10 a1 ba
       -0.018093007 -0.013012903 0.0038471043 -0.0012288385
000380 bd 75 b9 3b a1 ac ea 3b 6a 93 46 bb c4 e0 95 3c
       0.0056597874 0.0071616923 -0.0030300268 0.018295653
000390 68 01 da bc 50 17 e1 bc 33 a7 45 bc d5 f7 a1 bb
       -0.026611999 -0.027476937 -0.012063789 -0.004942874
0003a0 d6 22 99 3c c9 0b 85 3c 74 f5 ad bc 19 9b 0a bc
       0.018693369 0.016240971 -0.021235205 -0.00845983
0003b0 60 f2 05 3c 92 f5 46 bc 89 0b 80 3c 23 22 01 bc
       0.0081754625 -0.012143509 0.0156305 -0.007881674
0003c0 9f 70 90 bb ca 6e f4 bc 84 80 03 3c 22 15 87 38
       -0.0044079567 -0.029837985 0.008026246 6.441238e-05
0003d0 ec cc 09 3c 2b 2e 7f bb e5 97 e5 bb 97 22 98 3c
       0.008410674 -0.003893743 -0.0070066326 0.018571181
0003e0 b2 64 3e ba 8b 9a ff 3b 88 a3 39 bc ee 06 db 3a
       -0.00072629296 0.0078004054 -0.011330493 0.0016710439
0003f0 8a b3 ef 3b ae 3b 84 bc f3 ba b7 bc 1e cb c2 bc
       0.007315104 -0.016141739 -0.022428012 -0.023778494

fc1.bias f4 [120]
000000 33 0e 3d bc db 3f ab 3d c7 d6 54 bc 43 5f c8 bc
       -0.01153903 0.08361789 -0.01299066 -0.024459487
000010 12 3e 37 bd ae 0e 6c 3c 60 17 48 3d 7b 50 b9 3c
       -0.04473693 0.014407797 0.048850417 0.022621384
000020 86 16 fb 3b 9b 37 b0 bd c1 4d f5 b9 6f 6a 0b 3b
       0.007662597 -0.08604356 -0.00046787973 0.0021273156
000030 79 fd 25 bc 11 d7 42 bb ac d2 4f 3c 2d 11 2b 3d
       -0.010131233 -0.002973024 0.012684505 0.041764427
000040 64 62 0e bd 82 e3 e7 bc cd a1 4f 3b bb 4f a2 bb
       -0.0347618 -0.028306726 0.0031682134 -0.0049533523
000050 8f 60 9d 39 de 61 ae bc b3 ed 96 bc 1d 66 e5 3d
       0.00030017315 -0.021286901 -0.01842389 0.11201117
000060 4d f6 53 bc 5c b9 29 bc fa ae 79 3c c8 5d 3a bc
       -0.012937141 -0.0103591345 0.015239472 -0.011374898
000070 78 0f 70 3d 05 7b 11 3c 39 2e 63 bd 22 57 26 ba
       0.058608502 0.008879428 -0.055464003 -0.0006345381
000080 55 82 1c 3d e3 18 a4 3c e9 c7 16 3d dd f2 dd bc
       0.03821023 0.020031398 0.036811743 -0.027093345
000090 ce 6c 1c 3d 17 d4 fb bc 8c 6b 02 3d ee f0 b6 3d
       0.0381897 -0.03074078 0.031840846 0.089326724
0000a0 9b 88 96 3c 53 08 18 3d 60 35 8d 3c f3 0c e1 bb
       0.018375685 0.037117314 0.017237365 -0.0068679987
0000b0 bc 39 5b 3d 92 ed 81 bd e9 4c 90 3d 48 2b e6 bc
       0.053521857 -0.06344141 0.070459194 -0.02809681
0000c0 30 05 6e 3d 3d 42 0b bd e6 71 94 bc 42 c6 13 bc
       0.058110416 -0.033998717 -0.018120717 -0.009019436
0000d0 a6 3f 69 3d 78 d7 25 3c d8 ce 08 3c 30 b4 24 3d
       0.056945466 0.010122173 0.008350097 0.040210903
0000e0 19 f3 63 3b be 76 2b 3c c9 5e f9 3b df 41 9d bc
       0.0034782349 0.010465322 0.007610176 -0.019196449
0000f0 88 dc ea ba 2b 2f 1c 3c 8a 0c 2b 3d 7f 32 ba bc
       -0.0017918507 0.00953273 0.041760005 -0.022729157
000100 61 43 b2 bc 62 12 fc bb 1a 8a 3d 3d 32 a0 0f 3b
       -0.021760644 -0.007692621 0.046274282 0.0021915552
000110 b7 99 3b bd e6 1b 0c 3d 2b 2e 6a 3d aa 65 18 3c
       -0.04580089 0.034206294 0.057172935 0.009301582
000120 55 68 40 bc 37 99 51 3d e1 49 20 3d 2f b3 c1 3c
       -0.011743625 0.051171508 0.039132956 0.023645012
000130 bd 98 24 3d f0 3e b8 3a b3 6a 1b bc 75 3e 21 3c
       0.040184725 0.0014056843 -0.009485888 0.009841551
000140 4f 99 97 3c f2 81 47 bc e5 e2 5d bc 20 1f 5a 3d
       0.01850572 -0.0121769775 -0.013542865 0.05325234
000150 da 44 7a bb 6c 54 b1 3b 99 8a 08 bd 39 d7 5f 3d
       -0.0038188011 0.005411675 -0.033335302 0.05464861
000160 14 4f 58 3d 09 84 ce 3c 52 0c 57 3c d6 03 e4 3c
       0.05280979 0.025209444 0.013125496 0.02783386
000170 73 75 0e bd ca be f7 bb 1a f5 7b 3d f4 2e 15 bc
       -0.034779977 -0.0075605856 0.061513044 -0.009105433
000180 f4 77 79 3d 18 d5 85 3a 34 aa 04 bd 14 20 1b 3d
       0.06090541 0.0010210602 -0.03238888 0.03787239
000190 a3 b5 2f 3b 49 56 25 bc cb 29 25 3d 77 ba 7a 3c
       0.0026811145 -0.010091373 0.04032306 0.015303246
0001a0 2b 01 67 3b fe 33 c3 3b b3 1b a0 3c 5c 54 79 3d
       0.00352485 0.0059571257 0.019544458 0.060871467
0001b0 e3 b1 07 3d 6d af c1 3b f7 ca 22 3d 86 50 51 bc
       0.03312863 0.005910805 0.039744344 -0.012775546
0001c0 27 f1 13 3d 15 f7 cd bc a2 13 72 3d 99 52 a7 bc
       0.036118653 -0.025142232 0.059100755 -0.020425128
0001d0 a9 6e 62 3c 6d 90 1f 3d 3f 84 46 3d 87 e2 71 bc
       0.013820329 0.038956095 0.048465963 -0.014763481

fc2.weight f4 [84, 120]
000000 99 36 60 bd c7 f9 2b 3d cf c7 97 bd 60 57 3d 3d
       -0.05473957 0.041986253 -0.07411157 0.046225905
000010 eb b3 db 3a a0 41 83 3d 6a af 0e be 91 4c 1c 3d
       0.0016761994 0.06409001 -0.13934103 0.038158957
000020 04 d7 9b 3c a0 fd 4f bd 71 4d c3 bd fe e4 b3 3d
       0.019023426 -0.050778985 -0.09536255 0.08783911
000030 ec b6 e0 bc 8c 68 30 3d 44 f3 4c bd 93 4f 57 3d
       -0.027430974 0.043068454 -0.050036684 0.052566122
000040 f9 06 b4 bd 90 c9 6c bc a4 77 5a 3d 27 38 c6 3c
       -0.087903924 -0.014452353 0.053336754 0.024196697
000050 44 c6 73 3d 40 74 c9 3c 44 5f 72 3b 79 52 83 bd
       0.059515253 0.024591565 0.0036983052 -0.06412215
000060 9c d3 b2 3d 5c ae 61 3d c7 b6 27 bd 66 35 60 bd
       0.087317675 0.055097923 -0.040945794 -0.054738425
000070 62 09 26 bb 64 ce cf bd be 6a 6a bd d8 f9 71 bd
       -0.0025335182 -0.10146788 -0.057230704 -0.05907616
000080 07 d9 8b bc 6c 19 71 bd 88 4b d0 bd 61 65 89 bd
       -0.01707126 -0.058862135 -0.101706564 -0.067087896
000090 be 6c c9 bd 60 17 9a 3d 68 eb 29 bc 4e 12 20 bb
       -0.09835194 0.0752399 -0.010371067 -0.0024424973
0000a0 f5 5f 8a bd 88 ad ca 3c 7e 5c 22 bd 9c 5d ac 3d
       -0.067565836 0.02474095 -0.03963899 0.08416292
0000b0 25 c5 19 3d cb 86 de 39 83 f7 9a bc 50 84 81 3d
       0.037541527 0.00042443568 -0.01891685 0.06324065
0000c0 87 89 dc bd 48 c8 25 bd 4c 91 b5 3d c6 7a 8f bd
       -0.10768419 -0.040474206 0.08865604 -0.07005839
0000d0 9e 9b a1 bd 68 df 83 bc d2 82 8c 3d 4d cd e9 bd
       -0.0789101 -0.01609774 0.068608895 -0.11416111
0000e0 60 ba 3a 3d 52 6d 82 3d 45 c0 11 3d f5 d0 17 be
       0.045587897 0.063685074 0.035583753 -0.14825805
0000f0 26 0a a6 3d 3d 06 d3 3c b7 d5 df bd 66 76 02 bd
       0.081074044 0.02575981 -0.10929435 -0.031851195
000100 1b c8 58 bd 3f 2f 51 bd 61 96 c9 bd dc a2 ff bd
       -0.05292521 -0.051070448 -0.098431356 -0.12482235
000110 f6 f7 66 bd 88 83 fe bc 9a f2 17 3d 98 e3 ae bd
       -0.056388818 -0.031068578 0.037096597 -0.08539504
000120 48 96 3d 3c 69 33 fc bd d8 a3 f8 bc 94 9d 44 3b
       0.011571474 -0.12314493 -0.030351564 0.003000115
000130 bd 51 d7 bb 14 10 db bd a8 0c 24 3d cb 59 d0 bc
       -0.0065710233 -0.10696426 0.040051132 -0.025433442
000140 92 89 13 3d f0 3c 9f bd 6d fa ce 3c bf 78 b6 bd
       0.03601987 -0.07775295 0.025265897 -0.08909749
000150 9f 22 18 bd b6 22 ba bb 5b 82 b0 bd cd 02 8a bd
       -0.037142392 -0.0056804074 -0.08618613 -0.067388155
000160 82 3a 6d 3b b8 56 0e 3d 1a a4 25 3d 97 82 df bc
       0.0036198203 0.03475067 0.040439703 -0.02728395
000170 7a f3 1f bd c0 41 2f bb 45 b8 54 bd 32 08 c9 3c
       -0.039050557 -0.002674207 -0.051933546 0.02454004
000180 ca 2c 0e bd 28 52 8d bc a4 d9 30 3d 21 13 89 bd
       -0.034710683 -0.01725109 0.04317631 -0.06693102
000190 be 84 ce bb f5 d5 e5 bc e1 77 c3 bd ec 98 21 bd
       -0.006302445 -0.028056124 -0.095443495 -0.03945248
0001a0 ae c2 b0 bd 86 57 4a bd bc fd 4d bd 61 6e ce bd
       -0.08630882 -0.049399875 -0.050290808 -0.10079647
0001b0 f4 53 9a bd c6 50 05 bd 50 bc ad bc 08 85 8e 3d
       -0.07535544 -0.032547735 -0.021207958 0.069589674
0001c0 5e 28 c0 bd c4 f9 22 3d a2 88 aa bb 40 97 b5 bc
       -0.093826994 0.039788976 -0.005204276 -0.022166848
0001d0 3f 9a e1 bd 4d a8 06 3d 80 f9 cc bc ae 3e 5f bd
       -0.11015748 0.032875348 -0.025021315 -0.054503135
0001e0 57 c5 5d bd d4 e1 12 3d a3 e7 b9 3c aa d9 ed bc
       -0.054143276 0.035859898 0.02269346 -0.029034454
0001f0 d1 9d 18 bd 94 1f eb bc 21 99 ab 3c c7 84 0a 3d
       -0.03725988 -0.028701581 0.020947041 0.033818033
000200 cf db 6c bd 5d 1d 95 bc 3a 69 d3 3d 6a eb a7 3d
       -0.057826813 -0.018202478 0.10322805 0.081991985
000210 a8 af 38 3d a7 60 1a be 9d 36 43 bd 2d d6 ad bd
       0.045089394 -0.15075932 -0.047659505 -0.084881164
000220 60 1b 0e 3c dd 06 8d 3c 30 c6 0b bd 4e f8 87 bd
       0.008673519 0.017215187 -0.034124553 -0.06639157
000230 ea 66 85 3d 7f d4 95 bd 89 70 aa 3a 9f c1 04 3e
       0.0651377 -0.07315921 0.0013003509 0.12964486
000240 3b 23 68 bc 20 4b 0e 3d 09 6c 10 3d 37 6b 7d 3d
       -0.014168556 0.034739614 0.03525928 0.061869826
000250 f7 30 7d 3d 12 cd 70 bd 4d 69 a4 3c e7 d8 42 bc
       0.061814275 -0.05878932 0.020069743 -0.011892534
000260 e1 87 dd bd 8a 88 3d 3d a7 d9 04 be 7d 7e cf 3d
       -0.108169325 0.046272792 -0.12973653 0.101315476
000270 26 c5 1b 3c 46 31 ad 3d ef c6 33 bd 06 20 b2 3d
       0.009507453 0.08456664 -0.04389089 0.08697514
000280 98 5b 68 3d ea 70 e7 bd db fe 69 be e0 d0 ee bd
       0.056727976 -0.113008335 -0.22851126 -0.116609335
000290 0f e9 b0 3d ea d6 fe 3d 13 45 f6 3a 10 ae 2a bc
       0.086382024 0.12443335 0.0018788896 -0.010417476
0002a0 2f 9e 29 bd e2 54 7d 3e 5d 76 3b 3d 59 64 a8 bd
       -0.04141062 0.24739411 0.045767177 -0.08222265
0002b0 14 16 02 bd 1c 28 b5 3c ee 76 89 3d e2 13 9e bc
       -0.031759337 0.022113852 0.06712137 -0.01929659
0002c0 1d 8d 9c bd 41 13 1d bd 4e 22 8f 3d 1a 1d 97 3b
       -0.07644103 -0.03834844 0.06988965 0.0046116235
0002d0 90 71 9f 3d dd 32 c1 3c d9 e8 58 bd ee b2 9a 3d
       0.07785332 0.023583824 -0.052956436 0.075536594
0002e0 ac 34 4c 3c a0 86 aa 3c dd 2e 14 3e ad dd af 3d
       0.01246373 0.020816147 0.14471002 0.08587203
0002f0 85 74 87 3d c7 30 0d 3c 1b 76 aa bd bf bc b8 3c
       0.06614021 0.008617586 -0.08323308 0.022550939
000300 a2 53 5f 3d 3a 24 a8 3d c6 a5 aa bd 46 e9 07 be
       0.054523118 0.08210035 -0.083324 -0.1327258
000310 f0 b9 6e bd ad c5 11 3d 22 aa b7 bd c8 6b 64 3c
       -0.058282793 0.03558891 -0.08967997 0.013941713
000320 0b 80 0b be 9c de 43 3d 07 b6 8b bd e4 f0 92 3d
       -0.13623063 0.04781972 -0.06821828 0.071748525
000330 50 90 ec bb 40 ae 28 3e 4c c4 b8 bb e1 c8 91 bd
       -0.007219352 0.16472721 -0.005638635 -0.07118393
000340 72 45 1b 3e 96 5d ea 3c 6a 2a 08 3e 28 9d b5 bd
       0.1516321 0.028609078 0.1329743 -0.08867866
000350 59 18 e0 bb ff 62 55 bd 60 93 2c bd 7f 73 28 be
       -0.00683884 -0.052096363 -0.042132735 -0.16450308
000360 c0 1b a6 bc f4 8b 8d 3d a6 ed e6 bd cf e7 0a bd
       -0.020276904 0.069114596 -0.112757966 -0.033912476
000370 2d ab ce bd a6 6c 12 bd 9d 3d 03 be 03 b1 93 bd
       -0.10091243 -0.035748146 -0.12816472 -0.07211497
000380 b2 73 d7 3c 95 69 a9 3d 76 31 99 bd ba 49 b5 bd
       0.026300285 0.08272091 -0.07480137 -0.08851953
000390 a3 f8 1a 3d e9 2e bf bd 45 ac 31 3e d2 0c 53 3b
       0.037834775 -0.09335119 0.17350872 0.0032203686
0003a0 7a 11 74 bd 36 a2 f3 3c 32 3f ff bd a9 19 7d 3d
       -0.05958698 0.029740434 -0.124632254 0.06179205
0003b0 e3 82 b8 3d 53 11 1b 3e 01 3c 91 bc 40 ba 9c bc
       0.0900934 0.15143327 -0.017728807 -0.01913178
0003c0 41 15 12 bd a2 15 70 bd dd 50 70 bd 6a 26 1a 3c
       -0.0356648 -0.05861438 -0.058670867 0.009408573
0003d0 bf 92 3f bd 71 8d 8b 3d 37 f8 af bd 34 50 39 3c
       -0.046770807 0.06814087 -0.08592265 0.011310626
0003e0 26 db 92 3d c0 96 c6 3d eb a8 b7 3c 6f b0 56 bc
       0.071707055 0.09696722 0.022419414 -0.0131035885
0003f0 ea 03 f0 3c 23 69 6a bd 92 76 d1 3b 1b e9 14 be
       0.029298741 -0.057229172 0.0063923085 -0.14542048

fc2.bias f4 [84]
000000 de 4d fe bd 08 8f 83 bd 61 8e 52 3d d9 f7 bd bd
       -0.12417196 -0.064237654 0.051405314 -0.09275789
000010 d9 37 91 3d ee 48 af 3d 61 1b 8f 3d 84 e5 22 3d
       0.0709073 0.08558832 0.06987644 0.039769664
000020 76 17 18 3c 53 9f 58 3d 27 49 02 3b 4c c8 ad 3d
       0.009282937 0.05288632 0.0019880028 0.08485469
000030 16 51 a5 3c 66 47 8e 3d 23 7c a5 3d ff 9c 43 3d
       0.020180266 0.06947212 0.08080318 0.047757145
000040 90 ea c0 3d 4e 47 7f 3d b1 6b 97 bd 84 da 41 bd
       0.09419739 0.06232386 -0.073935874 -0.047327533
000050 7f 1f aa bd 66 52 49 3c 80 f6 6f 3d 67 a4 fc 3d
       -0.08306789 0.012287712 0.05858469 0.12336045
000060 75 9b 43 3d d4 b1 d0 bd 01 5c 09 3d d6 d9 e2 3d
       0.047755677 -0.10190168 0.033535007 0.11076705
000070 d7 b3 7e 3c a4 31 12 bd 3d ab 05 3e a6 a9 0c bc
       0.015545807 -0.035691872 0.13053603 -0.008585369
000080 42 c4 8f 3d 14 84 42 bc 6e 31 1d 3d 77 5a 32 3b
       0.07019855 -0.01187231 0.038377218 0.0027214566
000090 3f 91 c1 3d 95 69 65 3d 0f c0 08 3e 4f 1d 12 bd
       0.094515316 0.056008894 0.13354515 -0.035672482
0000a0 85 3f 81 bd 27 ac f9 3d bc 16 3e 3d 50 af 35 bc
       -0.063109435 0.121910386 0.0464084 -0.011089161
0000b0 b5 38 14 3d d9 fb a9 bd 79 d0 7d bd ea ed 31 3d
       0.036186893 -0.08299989 -0.061966393 0.043439783
0000c0 9b c1 63 3d c0 ca 6b bc 40 1d d8 bd 47 d1 b1 3c
       0.05560456 -0.014391601 -0.10552454 0.021706237
0000d0 cf f3 f8 bd 87 2d 52 bd 5b 16 f0 3b 30 13 31 3e
       -0.12155878 -0.05131295 0.0073268837 0.17292476
0000e0 9e 5f f0 bd bf 13 65 bd da ed 4c 3d 57 b3 ff bb
       -0.117369875 -0.055927034 0.05003152 -0.0078033614
0000f0 63 23 b6 3d 0d b3 70 bc 1a 32 2d 3d 33 78 9b 3d
       0.08893468 -0.0146911265 0.04228411 0.075912856
000100 7b 0b eb bd d2 61 23 3d a6 5b 94 3d 94 0b a2 bd
       -0.11476799 0.03988821 0.07244043 -0.079123646
000110 d1 7c 69 3c e1 4a da 3d 2c 08 09 3d f9 a5 8a 3d
       0.01425095 0.10658813 0.03345506 0.06769938
000120 93 77 bd bc fb 0f 23 bd a8 72 d4 3a d9 63 b0 3d
       -0.023128306 -0.039810162 0.0016208487 0.086127944
000130 0c 94 9e bd 6c 97 7c bd d8 5a da 3c e5 3d e0 bd
       -0.077430815 -0.061667845 0.026654646 -0.109493054
000140 2b cd c0 3d 38 e9 c1 bd 02 ec 2e 3d 96 00 b9 3c
       0.09414133 -0.09468311 0.042705543 0.022583287

fc3.weight f4 [10, 84]
000000 e1 69 8e bd 8d 13 13 be dc 73 a7 3d b6 a5 e1 bc
       -0.069537885 -0.14362927 0.08176395 -0.027544837
000010 be e7 ad 3d 43 a2 82 3d 0c 89 20 bc a5 b5 f5 3c
       0.08491467 0.06378605 -0.0097982995 0.029993841
000020 d3 e6 a7 bc 6a 0b 4c 3d 49 06 00 be 0e 06 66 3d
       -0.020495808 0.049815573 -0.12502398 0.056158118
000030 d1 34 d1 3d 32 fd 28 be 91 aa 3d bd 85 aa 6a bd
       0.10215152 -0.16502836 -0.046305243 -0.057291526
000040 d7 20 34 bd 4b 2e 51 bd 76 1a 1f bd 21 34 5a 3d
       -0.04397663 -0.05106954 -0.038843594 0.05327237
000050 7b b9 ef bd 50 a9 9a bd 4b 08 07 be a9 25 c4 bd
       -0.117052995 -0.07551825 -0.13186757 -0.095774956
000060 ad 73 49 be 6c 4a 9a bc 8e 3d 04 be ef f2 47 3c
       -0.19673033 -0.018834315 -0.12914106 0.012203916
000070 94 72 ae 3d 1b 7c 08 be 16 e1 9d bd 5b b9 d2 3d
       0.08517948 -0.13328592 -0.07708947 0.1028926
000080 27 40 de bc 33 06 2f bd 13 4b f9 3c 14 8b 37 3d
       -0.0271302 -0.04273052 0.030431306 0.04481037
000090 56 fc b3 3d f2 dd 69 bd 68 b8 87 3b bb 93 ae bd
       0.08788364 -0.05709643 0.004141856 -0.08524271
0000a0 8a 64 1f bd 55 54 b1 3c ae d0 fb 3b f7 23 0f be
       -0.03891424 0.021646658 0.0076847887 -0.13978563
0000b0 85 70 c7 3c 72 d3 c0 bd 97 03 9e bd b2 5d c5 bc
       0.024345646 -0.0941533 -0.077155285 -0.024092529
0000c0 bf 84 d6 3d 7d d8 88 3d e4 1e 0e bd 06 30 d2 3d
       0.10474538 0.06681917 -0.03469743 0.10263066
0000d0 c2 ee 48 bd 3a 19 5d bc ca ed e3 3d b9 8b c4 bc
       -0.049055822 -0.013494784 0.11129339 -0.023992406
0000e0 28 5e 4f 3e 3d 10 23 be ce 41 c4 3d 72 0a 0a 3e
       0.20250762 -0.15924163 0.09582864 0.13480547
0000f0 f6 c7 80 bc df 2b a1 3d 60 fe be 3d 9c f3 25 be
       -0.015720349 0.07869696 0.09325862 -0.16206211
000100 74 98 cb bd 74 2e 00 3d a3 95 9b 3d 83 4a 99 bd
       -0.099411875 0.0312943 0.075969 -0.07484915
000110 17 93 b5 3d 24 30 88 bd 93 02 65 3d 9f d7 90 3c
       0.08865946 -0.06649807 0.055910658 0.017680941
000120 a1 59 49 be 37 3d 67 3d 71 54 07 bd 91 f1 28 be
       -0.19663097 0.056454863 -0.033039514 -0.164984
000130 c9 97 00 3d ec 02 d7 bd d3 05 2c bd 58 b6 c8 bd
       0.031394754 -0.10498604 -0.041997742 -0.09800404
000140 c2 15 25 be 26 29 22 3d df 40 cc ba 7f 08 0b be
       -0.16121581 0.039590023 -0.0015583298 -0.1357746
000150 fa 39 ca bd 9c bf 34 be 4b 11 b5 bd f4 42 48 bc
       -0.098743394 -0.17651218 -0.08841189 -0.012222994
000160 52 7f 47 3c 4f e1 64 be 89 8e 37 be fe 44 7e 3c
       0.012176352 -0.22351573 -0.17925467 0.015519379
000170 28 75 07 3e 94 7e 25 be b3 d3 0a bd 25 22 e9 3d
       0.13228285 -0.16161567 -0.0338933 0.11383466
000180 59 ac bb 3d 46 6d eb 3d b3 09 92 3d bb 3b bd 3b
       0.09163732 0.11495452 0.07130756 0.0057749427
000190 ef f8 84 3d 53 f5 67 be c6 22 6c 3d 3e c2 3d bd
       0.06492793 -0.22652178 0.05765035 -0.046327822
0001a0 76 71 17 bd 3b d1 89 3c a7 09 71 be 24 79 ae bb
       -0.03697344 0.016823402 -0.23538838 -0.0053244997
0001b0 64 fa 14 3e c6 3e 5d bd 74 38 8f be 33 56 58 be
       0.14548641 -0.054014944 -0.27972758 -0.21126632
0001c0 e0 42 84 be c3 cb 19 3e 4f cd 77 3d c2 33 d0 3b
       -0.25832272 0.15019135 0.060498532 0.0063538263
0001d0 57 e2 86 3d c4 d8 80 3d d3 7f a8 3d c7 50 69 3c
       0.0658614 0.06291345 0.082275055 0.01424045
0001e0 e8 9b 5a be 10 29 59 be f4 c5 56 be a8 fd 7d 3a
       -0.21348536 -0.2120707 -0.2097395 0.0009688982
0001f0 ee 03 d4 3c 4c cc fd 3c ce a3 5f be 07 8e 5d bb
       0.02588078 0.030981205 -0.2183983 -0.0033806579
000200 7f 67 e7 bc 30 0a f8 bd e0 43 61 be 29 03 42 be
       -0.028247593 -0.12111318 -0.21998549 -0.18946518
000210 46 d6 1c be 63 06 bc bd 03 ee ae bd 96 cb 8a bd
       -0.15316114 -0.09180906 -0.08541491 -0.06777112
000220 63 c9 a2 3d e6 46 a2 bc a1 b1 78 be 2e e6 23 3e
       0.07948568 -0.019809198 -0.2428651 0.16005775
000230 8d 97 5b 3d 24 46 d2 3d 2f 47 c9 3d 3d 9a a0 3d
       0.053611327 0.102672845 0.0982803 0.078419186
000240 3f 26 e5 3d c6 34 07 be 32 29 21 3e a2 3d 73 bd
       0.111889355 -0.13203725 0.15738371 -0.05938495
000250 04 91 e9 bd 81 8a f4 3c 2b 92 a5 be eb b1 44 3e
       -0.11404613 0.0298512 -0.3233808 0.19208495
000260 43 d6 06 3e 4f cd c1 bd af af 08 bd f8 ca 43 be
       0.13167672 -0.09462988 -0.03337067 -0.19120395
000270 b7 5b 2e 3e 03 2d 90 3d 32 7f 38 3d c7 72 8f 3a
       0.17027174 0.07039835 0.045043178 0.001094424
000280 42 a3 24 bd 5a 1d 2c be fa 51 05 be c7 e5 84 3d
       -0.040194757 -0.16808072 -0.13019553 0.06489139
000290 66 81 93 bd e1 37 01 3e 77 bb be 3d 15 f1 bc 3d
       -0.07202415 0.12618972 0.093131 0.0922567
0002a0 12 d9 0d be 8d d7 8c be 39 12 06 be 4b 0b 95 bb
       -0.13852337 -0.27508202 -0.13092889 -0.0045484654
0002b0 39 bc a9 bd df 16 e4 3c 1e 34 b5 3b 96 f7 be 3d
       -0.08287854 0.027842937 0.0055298945 0.09324567
0002c0 83 93 0a 3e e6 f6 03 be b9 1b 3b be 2a 83 97 be
       0.13532834 -0.12887153 -0.18272294 -0.29592258
0002d0 dd d4 84 bc fa 64 98 3d 07 2e 1c bd dc 43 81 3d
       -0.016214782 0.07441135 -0.038129833 0.06311771
0002e0 19 83 01 3e 5a 02 2e be 88 b2 0a bd 9e 2d 78 bd
       0.12647666 -0.16993085 -0.033861667 -0.06059038
0002f0 c2 48 3f be 23 8f b0 bd e3 ee 41 3d 0f cd aa bd
       -0.18680099 -0.08621051 0.04734696 -0.08339893
000300 2b 01 e1 3d 87 0a 86 bc 35 76 20 be 5f e8 00 bd
       0.10986551 -0.016362442 -0.15670092 -0.031471606
000310 3a 8e ba 3c 60 53 9a bd 66 be 67 bd 04 cd db 3c
       0.022772897 -0.07535434 -0.056578062 0.026831158
000320 84 2e 17 3e 2a 49 13 be a8 6f 26 bd 1d b4 38 3d
       0.14763838 -0.14383379 -0.040633827 0.045093644
000330 d7 ff d0 3d be c1 b9 bd b6 bf 03 be 51 28 21 3e
       0.102050476 -0.090701565 -0.128661 0.15738036
000340 c3 b7 80 3d e0 fd e6 3d 23 5f d1 bd 88 80 35 bd
       0.0628505 0.112788916 -0.10223224 -0.04431203
000350 f6 62 d7 3d d6 07 62 bd 91 42 17 3d 73 e1 af 3d
       0.10516922 -0.055183254 0.036928717 0.08587923
000360 95 63 fa 3d ea 1c 4e 3d 21 32 5d 3d 2d 30 6d 3d
       0.12226025 0.050320543 0.054002885 0.057907272
000370 43 e8 b9 bd ad 97 50 3c c8 35 9f bd db ca fb 3c
       -0.090775035 0.012731475 -0.0777393 0.030736377
000380 dc e2 f6 bd ed d0 02 be c9 2e f8 3d 6f 4c 25 be
       -0.12054989 -0.12775011 0.121182986 -0.16142438
000390 9c 16 c3 bd df a7 69 bd 21 ab 00 bd 86 c7 c1 3d
       -0.09525797 -0.05704486 -0.0314132 0.09461884
0003a0 b3 a4 55 3b fd e5 17 3d 0d 3b ed 3d 44 87 f1 bd
       0.003259939 0.03708457 0.11583529 -0.11793378
0003b0 9e 5f 30 be 7a 8e ab 3b eb 3d 21 3e 03 69 d4 bc
       -0.17223975 0.0052354904 0.15746276 -0.02592898
0003c0 fd 52 22 bd 19 f2 92 3d 19 5c d8 3c 3f d0 ef bd
       -0.039629925 0.07175083 0.026411103 -0.11709642
0003d0 47 05 77 bd 8e b7 ad 3d 2d 13 40 3c 40 c2 16 3d
       -0.060307767 0.08482276 0.011723322 0.036806345
0003e0 4b aa da bd 66 90 03 be b3 aa a1 3d 73 d5 1a bd
       -0.10677012 -0.12848052 0.078938864 -0.037801217
0003f0 e6 99 40 bd 59 be 02 3b 3c 11 bc be c8 c2 e7 bc
       -0.04702177 0.0019949882 -0.367319 -0.028291121

fc3.bias f4 [10]
000000 04 ef 28 be 3c 77 a1 bc 44 92 46 3c 81 84 dc bc
       -0.16497427 -0.019710176 0.012119833 -0.026918652
000010 f9 b8 da 3c 90 4c fb bd 1f c9 9d bd 8b c4 19 3e
       0.02669953 -0.122704625 -0.077043764 0.15016381
000020 92 3b 18 3d 33 18 94 bc
       0.037166186 -0.018077945
