models/fashion_mnist_cnn_8_filters_64_batch.pth (torch, 438606 bytes, 10 tensors)

conv1.weight f4 [8, 1, 5, 5]
0	0xbe861f41	-0.2619572
1	0x3e83745f	0.25674722
2	0x3d9ccfd3	0.07656827
3	0xbc78a4dd	-0.015176025
4	0x3ca71d29	0.020399647
5	0xbf072f2a	-0.5280634
6	0x3e9b056a	0.30277568
7	0x3e1cc2d6	0.15308699
8	0x3d5b12e0	0.053484797
9	0xbd0c3b3c	-0.034236178
10	0xbef632fb	-0.4808577
11	0x3e702212	0.23450497
12	0x3e7a30ef	0.24432729
13	0x3b6fb2e3	0.003657513
14	0xbca5b08b	-0.020225784
15	0xbeccaaaf	-0.3997397
16	0x3e5eec06	0.21769723
17	0x3da26a5f	0.07930445
18	0x3df2aa15	0.11848847
19	0xbcac9622	-0.021067683
20	0xbd82a6c4	-0.06379464
21	0xbe184841	-0.14871313
22	0x3dddd97f	0.108325
23	0x3d47b1f6	0.0487537
24	0x3d772ace	0.060343556
25	0x3d49f3dc	0.049304828
26	0xbe102f2f	-0.14080499
27	0x3e748f66	0.23882827
28	0x3c9f6bf0	0.019460648
29	0xbe369b9e	-0.17832801
30	0xbe13eb1c	-0.14445156
31	0xbedcb9fd	-0.43110648
32	0x3eb12756	0.34600323
33	0x3e058306	0.13038263
34	0xbe8ed3d7	-0.27895996
35	0x3ddd3eda	0.108030036
36	0xbea233cc	-0.31680143
37	0x3d27a54d	0.040929127
38	0xbb094494	-0.0020945417
39	0x3dd3103c	0.10305831
40	0x3d05b65b	0.03264461
41	0xbd87e528	-0.06635505
42	0x3d722ddc	0.059125766
43	0x3dba883b	0.09108015
44	0x3de9f95c	0.11424515
45	0x3e0c5ea6	0.1370798
46	0xbe5c85df	-0.21535443
47	0x3df75e0d	0.12078486
48	0x3d9ae57d	0.07563303
49	0x3dace79d	0.08442614
50	0xbe385350	-0.18000531
51	0xbe1658d9	-0.1468233
52	0x3e8482af	0.25880954
53	0x3d735c83	0.059414398
54	0x3d1e7340	0.03868413
55	0xbe23b86c	-0.1598832
56	0xbe1df886	-0.15426835
57	0x3ecd5583	0.40104303
58	0xbd397f0e	-0.045287184
59	0xbe114a9e	-0.1418862
60	0x3d6dd77c	0.05806683
61	0x3d3df296	0.046373926
62	0xbda4a708	-0.08039671
63	0x3e1c4e9e	0.15264365
64	0xbdd52fe7	-0.10409527
65	0x3df3720f	0.11886989
66	0xbe0f71d0	-0.1400826
67	0x3db18cb8	0.08669418
68	0xbd2d6f83	-0.042342674
69	0xbc1ab573	-0.009442675
70	0x3de8a7dc	0.11360142
71	0xbe9b74b1	-0.30362466
72	0x3e35ee68	0.17766726
73	0x3de61e43	0.11236241
74	0xbde80ddf	-0.11330771
75	0x3d9ca9dd	0.07649586
76	0xbcd4baed	-0.02596804
77	0x3e4fdce5	0.20299108
78	0xbe22f8cd	-0.15915222
79	0x3e04236f	0.12904142
80	0x3dfd14e4	0.123575
81	0x3e4d1d54	0.20030719
82	0x3e4a6ef9	0.19768895
83	0xbd8677af	-0.065657966
84	0xbea250d4	-0.31702292
85	0x3db38c46	0.087669894
86	0xbdbd944b	-0.092568
87	0x3d32d733	0.04366226
88	0xbd492b76	-0.049113713
89	0xbe63fcc0	-0.22264385
90	0x3e537f03	0.2065392
91	0x3e1f3565	0.15547712
92	0x3d814dd9	0.063136764
93	0x3d572035	0.05252095
94	0xbe973cc3	-0.29538545
95	0x3de8c2f7	0.113653116
96	0x3df5bf38	0.11999363
97	0xba85c541	-0.0010205881
98	0xbe96c77d	-0.29449072
99	0xbe8c20f0	-0.2736888
100	0xbdcd5773	-0.10026445
101	0x3ea106ce	0.31450504
102	0xbe4e8d22	-0.20171025
103	0xbe424771	-0.18972565
104	0x3d93fbf2	0.07225789
105	0xbd034801	-0.03205109
106	0x3d40c47e	0.04706239
107	0x3e652612	0.22377804
108	0x3c3a531d	0.011372355
109	0xbd2ca31a	-0.042147733
110	0xbe79fad5	-0.24412091
111	0xbe82bc40	-0.25534248
112	0x3e21cead	0.15801497
113	0xbe3b8fc0	-0.18316555
114	0xbe9cf03f	-0.30652043
115	0x3d2fff47	0.04296806
116	0xbe4c46e5	-0.19948919
117	0xbcccd56f	-0.025004117
118	0x3e010351	0.12598921
119	0x3ea6e20a	0.3259433
120	0x3e07f5a8	0.13277304
121	0x3e3a50b7	0.18194853
122	0x3d9c2829	0.076248474
123	0x3e4a7708	0.1977197
124	0x3ccec6e6	0.025241327
125	0xbd5a111b	-0.05323897
126	0x3e2b5fbb	0.16735737
127	0x3e294065	0.16528471
128	0xbdc97d12	-0.098383084
129	0x3e107e0a	0.1411058
130	0x3de8e352	0.11371483
131	0x3c9f4c11	0.019445451
132	0x3d90a7aa	0.070632294
133	0x3e17cb1d	0.14823575
134	0x3dbea8a8	0.093095124
135	0x3e4c6a09	0.19962324
136	0x3e3731eb	0.17890136
137	0x3db90e83	0.09035971
138	0x3e19e092	0.15027073
139	0x3d6f1094	0.05836542
140	0xbd08a1e7	-0.033357527
141	0x3e27dc23	0.16392569
142	0x3e5448e2	0.20730928
143	0x3d87a06e	0.066223964
144	0x3b89a3e6	0.0042004464
145	0xbe32eaa1	-0.17472316
146	0xbec9b2ae	-0.39394134
147	0x3d7862a7	0.060640957
148	0x3de1cf08	0.11025816
149	0x3de6a65b	0.112621985
150	0xbe317808	-0.17330945
151	0xbe0d5bae	-0.13804504
152	0xbd201771	-0.039084855
153	0x3d8543f4	0.06507102
154	0xbdc434dd	-0.09580395
155	0x3d89bf49	0.06725938
156	0xbe81c4ec	-0.25345552
157	0xbe70f68a	-0.23531547
158	0x3e30506e	0.17218181
159	0x3e7a44f3	0.24440365
160	0xbebf5205	-0.37367263
161	0xbe5ea78b	-0.217436
162	0x3da3db2e	0.080007896
163	0x3e75bf5b	0.23998778
164	0x3e48f9cb	0.19626538
165	0x3d83e0d8	0.0643937
166	0x3df0b013	0.117523335
167	0xbe093941	-0.13400747
168	0x3e827dd7	0.25486633
169	0x3e32b39f	0.17451333
170	0xbe7998ec	-0.24374741
171	0x3c837d4b	0.016050955
172	0x3dfde33e	0.12396859
173	0x3e8028d8	0.2503116
174	0xbd6e075c	-0.058112487
175	0x3dfabd45	0.122431315
176	0xbd470dca	-0.048597135
177	0x3d620a57	0.055185642
178	0x3bbd794e	0.005782283
179	0xbd93d3a8	-0.072181046
180	0xbe091eaf	-0.13390611
181	0xbd19a2d1	-0.03750879
182	0xbebe40a7	-0.371587
183	0xbe948ce4	-0.2901374
184	0xbe1444b6	-0.14479336
185	0xbe3d51e5	-0.18488272
186	0xbe8d21b0	-0.27564764
187	0xbec6d9f6	-0.38838166
188	0xbe69f330	-0.22846675
189	0xbddeb5f6	-0.1087455
190	0xbdc6bead	-0.09704337
191	0x3db9fa9c	0.09081003
192	0x3e48b610	0.19600701
193	0x3dfb21cb	0.12262305
194	0x3e12cb34	0.14335328
195	0x3e12646f	0.14296125
196	0x3ccb6b3f	0.024831412
197	0x3e60d388	0.21955693
198	0x3d8688a1	0.06569029
199	0xbda08806	-0.078384444

conv1.bias f4 [8]
0	0xbc0c500e	-0.008564008
1	0x3cbea671	0.023272725
2	0xbaf8e049	-0.0018987741
3	0x3d8226dd	0.06355069
4	0x3d2aba3a	0.041681506
5	0xbe29564a	-0.16536823
6	0x3e9c7d8d	0.30564538
7	0xbea30f0e	-0.31847423

conv2.weight f4 [16, 8, 5, 5]
0	0xbc963fac	-0.018340908
1	0x3e3c1c0e	0.18370077
2	0x3e3dacde	0.18522975
3	0x3cca1a8f	0.024670867
4	0x3ad99e96	0.0016603048
5	0xbd390398	-0.045169443
6	0x3aa3f6be	0.0012509448
7	0x3d6b4032	0.05743427
8	0x3b7c4d94	0.0038498389
9	0xbda143d0	-0.07874262
10	0xbd967f77	-0.07348531
11	0x3db37a5a	0.08763571
12	0xbd4e88a1	-0.05042327
13	0xbe593a4a	-0.21213642
14	0xbdd52b5f	-0.10408663
15	0xbe4c23d5	-0.19935544
16	0xbe038dea	-0.12847105
17	0xbe8b8611	-0.27250722
18	0xbdc43886	-0.095810935
19	0xbdc7fceb	-0.09765037
20	0xbde68152	-0.11255135
21	0xbe8f5e39	-0.28001574
22	0xbe7c0f90	-0.24615312
23	0xbc5218ae	-0.012823267
24	0x3e0c2afd	0.13688274
25	0x3daffddd	0.085933425
26	0x3e1e0ee9	0.15435375
27	0x3e27fb90	0.16404557
28	0x3cfdaf97	0.030967517
29	0xbd1d5b8e	-0.03841739
30	0x3e5f52ce	0.21808931
31	0x3e5c0ec2	0.21490005
32	0x3e3a9ddd	0.18224283
33	0x3d8a9ec3	0.06768563
34	0xbccbda86	-0.024884474
35	0xbcff1f33	-0.031142807
36	0xbe82085b	-0.25397
37	0xbe824c8d	-0.2544903
38	0xbea79c8d	-0.32736626
39	0x3cc47026	0.023979258
40	0xbe06c22c	-0.13160008
41	0xbe746bd8	-0.23869264
42	0xbe8ad3db	-0.27114758
43	0xbe24695b	-0.16055815
44	0xbd606269	-0.05478135
45	0x3b4f4822	0.0031628688
46	0x3c181191	0.009281532
47	0x3b9d4749	0.0047997576
48	0x3d18f5e4	0.037343875
49	0x3d3f0459	0.046635006
50	0x3bd9d404	0.0066475887
51	0x3dfbfe02	0.123043075
52	0x3d80c07b	0.06286713
53	0x3da82500	0.08210182
54	0x3d4d253a	0.05008433
55	0x3c14022a	0.009033719
56	0x3dfdbb81	0.12389279
57	0x3e0c3966	0.13693771
58	0x3e604c18	0.21904027
59	0x3d1ba84d	0.0380023
60	0xbdc5a6cc	-0.096509546
61	0xbc0fea49	-0.008783885
62	0x3df54480	0.11975956
63	0xbc3b1190	-0.011417761
64	0x3c435c80	0.011923909
65	0xbe0a7c25	-0.1352392
66	0xbe4c6192	-0.19959095
67	0xbe697421	-0.22798206
68	0xbe33a682	-0.17543986
69	0xbcbf063b	-0.0233184
70	0xbd8a6beb	-0.06758865
71	0xbdfab016	-0.12240617
72	0xbde2948e	-0.11063491
73	0xbd5a2d8e	-0.0532661
74	0x3db3d83a	0.08781476
75	0xbcca76f9	-0.024714934
76	0xbd79c0f0	-0.060975015
77	0xbdfd0cca	-0.12355955
78	0xbd310cf6	-0.04322525
79	0x3db1489d	0.08656428
80	0xbdcd1d15	-0.100153126
81	0xbb515cc0	-0.0031946152
82	0xbbd3fbc8	-0.0064692236
83	0x3e248873	0.16067676
84	0x3c32a268	0.0109029785
85	0xbdc9317f	-0.09823894
86	0x3db5b77e	0.08872889
87	0x3c311ebc	0.01081055
88	0x3e313ce6	0.17308387
89	0xbbe73f26	-0.0070570884
90	0x3e037b1f	0.12839936
91	0x3e0cc049	0.13745226
92	0xbcb7f011	-0.02245334
93	0xbe099b3f	-0.13438128
94	0xbdb54b08	-0.08852202
95	0x3b2fd747	0.0026831196
96	0x3a88fd72	0.0010451509
97	0xbde099d9	-0.10966844
98	0xbe6cb6e5	-0.23116644
99	0xbdd6bec5	-0.10485605
100	0x3c9ff157	0.01952426
101	0x3dedece2	0.116174474
102	0x3e51d5ba	0.20491686
103	0x3e2f4a72	0.17118242
104	0x3cf5bb52	0.029996548
105	0x3e5a3089	0.21307577
106	0x3eb447fe	0.35211176
107	0x3e98f93d	0.29877654
108	0x3bdda4b1	0.0067640175
109	0xbd0319ed	-0.032007147
110	0xbd26576c	-0.040610716
111	0x3d07716b	0.03306715
112	0x3d87ee70	0.06637275
113	0x3d6592f7	0.05604836
114	0xbd008474	-0.031376317
115	0x3d4cc0d9	0.0499886
116	0xbca2fb6e	-0.019895282
117	0xbe14bb2f	-0.1452453
118	0x3c19567d	0.009358999
119	0xbc9f16ff	-0.019420145
120	0x3deb231d	0.11481307
121	0xbdb5a807	-0.08869939
122	0xbd270222	-0.04077352
123	0xbde74202	-0.11291887
124	0xbe3e58ac	-0.18588513
125	0x3cc8b8c4	0.024502166
126	0x3c8b3f45	0.016997943
127	0x3d4a60f8	0.049408883
128	0xbc4edddb	-0.012626137
129	0x3e1713ae	0.14753601
130	0xbe018e77	-0.12652002
131	0xbc87db22	-0.016583983
132	0x3d01b0a2	0.03166259
133	0x3dedf859	0.11619634
134	0x3dc6b015	0.09701554
135	0xbd20191d	-0.03908645
136	0x3dc0a8b7	0.0940718
137	0x3dcb9966	0.09941368
138	0x3d7f958a	0.06239847
139	0xbc919182	-0.017769579
140	0xbdbb4998	-0.09144896
141	0xbe0a139e	-0.13484046
142	0xbc60660d	-0.013696206
143	0x3d2929bb	0.041299563
144	0xbd8a7c63	-0.06762006
145	0xbdcb1c0a	-0.099174574
146	0xbe5fa3dc	-0.21839851
147	0xbde4faa2	-0.11180617
148	0x3d0f5005	0.034988422
149	0x3cf26f6f	0.029594151
150	0x3bff1e75	0.007785613
151	0x3ddf9c33	0.109184645
152	0x3e0a7049	0.13519396
153	0x3e041a9c	0.12900776
154	0xbcfb5885	-0.030681858
155	0x3d92b96b	0.07164272
156	0x3e683fa7	0.22680531
157	0x3e3cdc01	0.184433
158	0xbb66137f	-0.0035106835
159	0xbcd64c34	-0.026159383
160	0x3e064f10	0.13116097
161	0x3cb97131	0.022636982
162	0xbe74071d	-0.23830839
163	0xbe3d1acc	-0.18467253
164	0xbc0b8b09	-0.008517035
165	0xbe2dc6e6	-0.16970405
166	0xbe438453	-0.19093446
167	0xbe48bdb3	-0.19603615
168	0x3d962803	0.073318504
169	0xbd1b2f22	-0.037886746
170	0xbe10de31	-0.1414726
171	0xbdac9193	-0.084262036
172	0xbd3fdf18	-0.04684362
173	0x3e05f8e0	0.1308322
174	0xbca8daff	-0.020612238
175	0xbde4a88c	-0.1116496
176	0xbd3a1022	-0.04542554
177	0xbdd53229	-0.10409958
178	0xbe12f7b2	-0.14352301
179	0xbdb95c49	-0.09050805
180	0x3e2060cc	0.15661925
181	0x3c409a87	0.011755592
182	0xbdb7cdda	-0.0897481
183	0xbe222fb6	-0.15838513
184	0xbe0c649a	-0.13710251
185	0xbd8a4b3d	-0.06752632
186	0x3cba17a3	0.022716349
187	0x38ef6792	0.000114156996
188	0x3dd0f1b3	0.102023505
189	0xbd0e480d	-0.03473668
190	0x3d77c78b	0.060493033
191	0x3e0f6055	0.14001592
192	0x3dd59a1a	0.10429783
193	0x3e102a0c	0.1407854
194	0x3d9f2a10	0.07771695
195	0x3dbfe459	0.09369726
196	0x3e224c7a	0.15849486
197	0x3ddec977	0.1087827
198	0x3df1a76b	0.117995106
199	0x3d18097f	0.03711843
200	0xbe0e0a1f	-0.13871048
201	0xbdb2d301	-0.08731652
202	0x3e2632ba	0.16230288
203	0xbd400118	-0.046876043
204	0xbe310727	-0.17287885
205	0x3d6dd58c	0.058064982
206	0x3d2912b1	0.04127759
207	0x3e7928aa	0.24331918
208	0xbe31ce1e	-0.17363784
209	0xbe336cf1	-0.17522027
210	0x3e04e447	0.12977706
211	0x3e2b69b8	0.16739547
212	0xbdb95055	-0.09048525
213	0xbe715abc	-0.23569769
214	0xbe15154e	-0.14558908
215	0x3e06f10c	0.1317789
216	0x3dc608f6	0.09669678
217	0xbe83427b	-0.25636658
218	0xbe879dc0	-0.2648754
219	0x3c262b01	0.010142089
220	0xbc8e3ef8	-0.01736401
221	0x3dc986b2	0.09840144
222	0xbdae51a4	-0.085116655
223	0xbda7945e	-0.08182596
224	0x3dbb0e29	0.0913356
225	0x3c9744e9	0.018465476
226	0xbd7c2b62	-0.06156481
227	0x3dd8a297	0.105778866
228	0xbcc26038	-0.023727521
229	0x3bf4d1dd	0.0074713067
230	0x3d95e48e	0.07318984
231	0x3d0dad63	0.034589183
232	0xbc9b8caa	-0.018987972
233	0xbd84400d	-0.06457529
234	0x3c376ede	0.011195866
235	0x3e0b92b4	0.13630182
236	0x3c03a1f3	0.008034217
237	0xbe40916c	-0.18805474
238	0x3ad4d884	0.0016238843
239	0x3e7a6014	0.24450713
240	0x3e74036d	0.23829432
241	0xbdbf32b5	-0.093358435
242	0xbe096c9f	-0.13420342
243	0xbcfedbc4	-0.031110652
244	0x3e8a21c4	0.26978886
245	0x3d51b769	0.051200304
246	0xbd5f563c	-0.0545256
247	0xbe08a16c	-0.13342828
248	0x3dec0a95	0.11525456
249	0xbd25fdfb	-0.040525418
250	0xbda1ed11	-0.07906545
251	0xbdd26421	-0.10273004
252	0xbd83895f	-0.06422686
253	0xbd2825a8	-0.041051537
254	0x3d3902c8	0.045168668
255	0x3e0c3c07	0.13694774

conv2.bias f4 [16]
0	0xbd4ed11d	-0.050492395
1	0x3cb5fdb3	0.0222157
2	0xbe096e1d	-0.13420911
3	0x3d84ae7a	0.06478591
4	0x3d9b2a73	0.07576456
5	0xbd9705e7	-0.07374173
6	0x3e159041	0.1460581
7	0xbe13d19b	-0.14435427
8	0xbde3eb92	-0.11128916
9	0xbd5e4a89	-0.0542703
10	0x3e33048a	0.174822
11	0x3d088880	0.0333333
12	0x3c74cdb6	0.014941623
13	0xbccf9af6	-0.025342446
14	0xbdd48925	-0.10377721
15	0xbcf6fbb0	-0.03014931

fc1.weight f4 [120, 784]
0	0xbd225cd7	-0.03963932
1	0xbc83ffeb	-0.016113242
2	0x3bf46deb	0.0074593923
3	0xbd10a96c	-0.035317823
4	0x3cd38b50	0.025823265
5	0xbc9ddff7	-0.019271834
6	0xbd04e602	-0.032445915
7	0x3cb574e0	0.022150457
8	0xbc870cff	-0.01648569
9	0xbd44e970	-0.048074186
10	0xbca0bb94	-0.019620694
11	0xbcfda8d7	-0.030964298
12	0xbce7ad44	-0.028280862
13	0xbccb986d	-0.024852956
14	0x3c34db68	0.011038639
15	0xbd45ba5c	-0.04827343
16	0xbd00db9a	-0.03145943
17	0xbceb3889	-0.028713482
18	0x3bea75cc	0.0071551558
19	0xbc6c19af	-0.01441042
20	0xbd24d083	-0.040237915
21	0xbc173dbc	-0.009231027
22	0x3c41d0bc	0.011829551
23	0xbca386e5	-0.019961784
24	0x3ccd04da	0.025026727
25	0x3bfccff0	0.007715218
26	0xbc40066e	-0.011720283
27	0xbd117b09	-0.035517726
28	0x3c424938	0.011858277
29	0x3ce4b296	0.027917188
30	0x3cf63f86	0.030059587
31	0xbd0be217	-0.034151163
32	0xbd117554	-0.035512283
33	0x3cfaab52	0.03059927
34	0xbadc5ee0	-0.0016812943
35	0xbd32494c	-0.043526933
36	0xbd50f7f5	-0.05101772
37	0xbd21465b	-0.039373737
38	0x3ca60289	0.02026488
39	0xbd1a1d32	-0.0376255
40	0x3c928ae1	0.017888488
41	0xbd2958c9	-0.041344438
42	0xbd6f0610	-0.05835539
43	0xbbd4f019	-0.0064983484
44	0xbc682922	-0.014169963
45	0xbd1f032e	-0.03882139
46	0xbc28af3f	-0.010295688
47	0xbb0a1d57	-0.0021074617
48	0xbc08a1fe	-0.008339403
49	0x3c552987	0.013010389
50	0xbcf75375	-0.030191163
51	0x3c9cecc8	0.019155875
52	0x3c0b08df	0.008486002
53	0xbb9ab275	-0.0047209808
54	0x3c2a8500	0.010407686
55	0xbd3a3060	-0.04545629
56	0x3cb775b8	0.022395
57	0xbbf9082a	-0.00759985
58	0xbc537682	-0.012906672
59	0x3cbe724c	0.02324786
60	0xbcb2276e	-0.021747317
61	0xbd2bba3f	-0.041925665
62	0xbc8458ad	-0.016155565
63	0x3c6533cd	0.013989401
64	0xbd1af98d	-0.037835646
65	0x3ca53e3a	0.020171273
66	0x3aafbe04	0.001340807
67	0xbb043ee8	-0.0020179097
68	0xbd2c8aa2	-0.042124398
69	0x3c58a942	0.013223948
70	0xbba2d64e	-0.0049693948
71	0xbb36871c	-0.0027851528
72	0x3cd07e63	0.02545089
73	0x3a0aec50	0.00052994955
74	0x3bf0ae94	0.00734503
75	0x3bdecdf7	0.0067994553
76	0xbb64f243	-0.0034934438
77	0x3c726edf	0.014796942
78	0xbc2ee7dd	-0.010675398
79	0xbd1ea956	-0.03873571
80	0x39755390	0.0002339615
81	0x3aa0660e	0.0012237446
82	0xbcf842b4	-0.030305244
83	0xbc7cc744	-0.015428368
84	0x3c298a99	0.010347986
85	0x3c6f1d15	0.014594336
86	0xbc2232ac	-0.009899776
87	0xbcd2b614	-0.025721587
88	0x3a28366e	0.0006416802
89	0xbd845c7b	-0.06462952
90	0x3bf91ce2	0.00760232
91	0xbcbbf7db	-0.022945335
92	0xbcd24cd9	-0.02567141
93	0x3c998f6a	0.018745143
94	0xbc452c42	-0.012034478
95	0xbcb60f56	-0.02222411
96	0xbd2d333f	-0.0422852
97	0xbba915f3	-0.0051600873
98	0xbc775ff8	-0.015098564
99	0xbb70eeba	-0.0036763386
100	0xbc61f810	-0.013792053
101	0xbcff5155	-0.031166712
102	0xbd232102	-0.0398264
103	0xbc892d7a	-0.016745318
104	0xbccef47f	-0.02526307
105	0x3bfb9646	0.007677826
106	0xbd4ca6ca	-0.04996375
107	0xbccc1f85	-0.024917373
108	0xbd2fdad4	-0.0429333
109	0x3c9a0c72	0.018804763
110	0xbc9a3f73	-0.018829083
111	0xbbbd87dd	-0.0057840184
112	0xbcb02174	-0.021500327
113	0xbc24490d	-0.010027182
114	0xbcaefef7	-0.021361811
115	0xbd022a9c	-0.031778917
116	0xba6bdcaa	-0.000899742
117	0xbc7417a0	-0.014898211
118	0x3caad935	0.020855526
119	0xbc228f7a	-0.009921903
120	0x395f25b8	0.00021280989
121	0xbc422018	-0.011848472
122	0x3c379476	0.011204829
123	0x3c8a69f5	0.016896227
124	0xbd16fe46	-0.036863588
125	0xbcc36072	-0.0238497
126	0xbc9101c3	-0.017701035
127	0xbd20ffc5	-0.03930642
128	0x3c817de6	0.015807103
129	0xbd09afb9	-0.033614848
130	0xbd01656a	-0.031590857
131	0xbb45e719	-0.003019756
132	0xbd2323a7	-0.039828923
133	0xbb376892	-0.0027985913
134	0xbd1e2fe5	-0.038619895
135	0x3c857c57	0.016294641
136	0x3c1aeae1	0.009455414
137	0x3cd388a4	0.025821991
138	0xbcd97cfe	-0.026548859
139	0x3cb57e1f	0.022154866
140	0xbd2564c2	-0.040379293
141	0xbc8e1501	-0.017344
142	0x3ca93709	0.020656126
143	0x3c81459e	0.015780266
144	0x3cbbc116	0.022919219
145	0x3a52b25c	0.0008037442
146	0xbce43655	-0.027857939
147	0xbccd940e	-0.025095012
148	0x3cc4bbd6	0.024015348
149	0xbcae4d42	-0.021277074
150	0x3cc2a7ad	0.023761595
151	0x3c1809d8	0.009279691
152	0xbd02e80f	-0.03195959
153	0xbd3bafec	-0.04582207
154	0x3c8abaac	0.016934715
155	0xbd1bf2c7	-0.038073327
156	0xbc7568d5	-0.014978607
157	0xbb623749	-0.0034517816
158	0x3b1b829a	0.0023728968
159	0x3c9c9cc7	0.019117726
160	0xbd034900	-0.03205204
161	0xb9a0fe9d	-0.0003070728
162	0x3c0f6929	0.0087530995
163	0xbd0beff0	-0.03416437
164	0xbcc50b76	-0.024053317
165	0xbd233366	-0.03984394
166	0x3b4b859b	0.0031054977
167	0x3cebee55	0.028800169
168	0xbc83c242	-0.01608384
169	0xbd1adc27	-0.03780761
170	0xbd32a8bd	-0.043617953
171	0xbccf5107	-0.025307192
172	0xbd0fdca2	-0.03512252
173	0xbc44a809	-0.012002953
174	0x3b8e6b7b	0.0043463088
175	0xbd0b5031	-0.034012023
176	0xbd271b7c	-0.040797696
177	0xba27ba93	-0.0006398346
178	0x3c0db71a	0.008649612
179	0xbd1aea8f	-0.03782135
180	0xbd2d0f88	-0.04225114
181	0xbc2a3ab1	-0.01038997
182	0xbd2db440	-0.042408228
183	0xbd2d7a5a	-0.04235301
184	0xbc342e71	-0.010997401
185	0x3cd5074f	0.026004462
186	0xbb9ae194	-0.004726598
187	0x3b3f6679	0.0029205366
188	0xbd39d42b	-0.045368355
189	0xbac50457	-0.0015031201
190	0xbc8f376b	-0.01748248
191	0xbd181030	-0.037124813
192	0x3d077f29	0.033080254
193	0xb93f4a00	-0.00018242747
194	0xbc8b4942	-0.017002705
195	0xbbdc988e	-0.006732053
196	0xbccc280b	-0.024921438
197	0x3b828870	0.00398355
198	0xbcd0f298	-0.025506303
199	0x3cd3a668	0.025836185
200	0xbce7047b	-0.028200379
201	0xbcf29c2b	-0.029615482
202	0xbc2f08e5	-0.010683273
203	0xbd1cfbd3	-0.038326096
204	0xbbb56091	-0.0055351933
205	0xbb88c9b4	-0.0041744355
206	0xbc3f3fa4	-0.011672888
207	0x3cd333d9	0.025781559
208	0x3c8b47d0	0.017002016
209	0xbcae661a	-0.02128892
210	0xbcff6887	-0.031177772
211	0x3ba78aaf	0.005112968
212	0xbcd1a274	-0.025590159
213	0xbc333246	-0.010937279
214	0xb8820f48	-6.2017294e-05
215	0x3c858f8f	0.016303806
216	0x3ba37a4c	0.004988944
217	0x3c7ddc8f	0.01549448
218	0xbbbf0b7e	-0.0058302274
219	0x3cec2896	0.028827947
220	0xbc0b6b6d	-0.008509499
221	0xbcef4f74	-0.02921269
222	0xbbe42979	-0.0069629517
223	0xbc9dba3e	-0.019253846
224	0xbc1d2a87	-0.009592659
225	0xbc7c81c0	-0.015411794
226	0x3ce4fc03	0.0279522
227	0x3c7e0e45	0.015506332
228	0x3cf7460b	0.030184766
229	0x3c650504	0.013978247
230	0xbbcd8d69	-0.006272961
231	0x3b653fe3	0.0034980706
232	0xbcf6372d	-0.030055607
233	0x3c0dee4c	0.008662771
234	0x3c67d1f4	0.014149178
235	0x3c822c99	0.015890406
236	0xbc2a23ed	-0.010384542
237	0xbd0e6550	-0.034764588
238	0xbcad8bd2	-0.021184836
239	0x3c235e28	0.009971179
240	0x3c88b133	0.016686058
241	0xbcf11d80	-0.029433012
242	0xbd1fdb12	-0.03902728
243	0xbc26d764	-0.010183189
244	0xbcc3d349	-0.02390446
245	0xbd22b1e1	-0.03972042
246	0xbcc76a78	-0.02434276
247	0xbcf11af3	-0.029431796
248	0xbd35a646	-0.044348024
249	0xbb4d9301	-0.0031368139
250	0xbbdc1183	-0.0067159547
251	0xbc861ccd	-0.016371155
252	0xbc56c364	-0.013108108
253	0x3b08f600	0.002089858
254	0xbcab5bd6	-0.020917814
255	0xbccab392	-0.024743829

fc1.bias f4 [120]
0	0xbcee84db	-0.029116085
1	0xb8f3bf38	-0.0001162276
2	0xbc8baf54	-0.017051376
3	0x3d922c6c	0.07137379
4	0x3d62b5ae	0.055349045
5	0x3d907ae8	0.070546925
6	0x3c9efcf1	0.019407721
7	0xbb8cc404	-0.004295828
8	0x3da22187	0.07916551
9	0xbd80a5f8	-0.06281656
10	0x3d0c1899	0.034203146
11	0x3d3c0c15	0.04590996
12	0x3db2b12a	0.087251976
13	0x3d47ef70	0.04881233
14	0x3cd2668c	0.025683664
15	0x3da7b1b8	0.08188194
16	0xbca7e8cc	-0.020496748
17	0xbc4e1cf5	-0.012580146
18	0x3d6c564c	0.057699487
19	0x3c49b353	0.012310821
20	0x3dba02f3	0.09082594
21	0x3ca50d74	0.020148017
22	0x3d6ef5be	0.058339827
23	0xbc901dd3	-0.017592346
24	0xbd543e04	-0.051816955
25	0x3d55251d	0.052037347
26	0x3d751e5b	0.059843402
27	0x3cb1c317	0.021699471
28	0xbc0a0f4a	-0.008426497
29	0xbc056e19	-0.008143925
30	0x3b484acf	0.0030562168
31	0xbc70f018	-0.01470568
32	0x3c162a77	0.009165398
33	0x391e89aa	0.00015119338
34	0x3d5d9838	0.054100245
35	0x3dae251a	0.0850317
36	0x3d0f9e3c	0.035063013
37	0x3dbafcd6	0.09130256
38	0x3d27b737	0.04094621
39	0xbca6f173	-0.020378804
40	0x3d33eada	0.043925144
41	0x3d54af56	0.051925026
42	0x3d08ec46	0.033428453
43	0xbd1b3d48	-0.03790024
44	0xbd0f92df	-0.035052177
45	0x3dbe9077	0.09304898
46	0xbcc6e4a3	-0.024278944
47	0xbd09ea26	-0.033670567
48	0xbc520ffd	-0.012821195
49	0x3b384477	0.002811698
50	0xbb0a7b14	-0.002113049
51	0xbb9a8168	-0.0047151335
52	0x3ad2cd35	0.0016082885
53	0x3d3ac800	0.04560089
54	0xbd20bc3b	-0.03924201
55	0xbc10691e	-0.008814124
56	0x3d1426fb	0.036169987
57	0xbd8d1994	-0.06889644
58	0x3ca7be03	0.020476347
59	0x3d591146	0.05299499
60	0x3dc29e2c	0.09502825
61	0x3bde7a3b	0.0067894734
62	0x3cd04d8c	0.025427602
63	0x3c7302d5	0.014832218
64	0x3d6fc587	0.058537986
65	0xbcee532f	-0.0290924
66	0x3ce35463	0.0277502
67	0xbce836ba	-0.028346408
68	0x3d18e167	0.037324335
69	0x3d89fcdc	0.06737682
70	0xbcfb90d8	-0.030708715
71	0x3c89f7ec	0.016841851
72	0x3d1aa02e	0.037750416
73	0x3c97bb39	0.018521892
74	0xbc944341	-0.018098475
75	0x3d4f4517	0.050603
76	0xbd898802	-0.067153946
77	0xbd168c31	-0.03675479
78	0x3d140a67	0.036142733
79	0x3cfe8331	0.031068416
80	0x3d1e8131	0.038697425
81	0x3cf0d878	0.029400095
82	0x3dd9cffb	0.10635372
83	0xba40c456	-0.0007353475
84	0xbcb36089	-0.021896617
85	0xbcfb1133	-0.03064785
86	0x3d4ede4e	0.050504975
87	0xbc07f515	-0.008298178
88	0x3c970712	0.018435989
89	0x3d372dfd	0.044721592
90	0x3d202bb6	0.039104186
91	0x3cb2124a	0.021737237
92	0xbc1e4ec3	-0.009662333
93	0x3d566f4f	0.052352246
94	0xbceffedd	-0.029296333
95	0xbb0254b8	-0.0019886922
96	0x3b60fe5d	0.00343313
97	0xbd0939bb	-0.03350232
98	0x3d3e0b5a	0.046397544
99	0x3ce4e99c	0.027943425
100	0x3d7ee91a	0.06223402
101	0x3cf590c2	0.029976252
102	0x3d23f472	0.040028043
103	0xbca0859a	-0.019594956
104	0x3dbcfc1f	0.09227776
105	0x3dad5e5d	0.08465264
106	0x397c4332	0.00024057625
107	0xbcbc4d67	-0.022986127
108	0x3d5a1952	0.053246804
109	0x3cf1362f	0.029444782
110	0xbc311022	-0.010807069
111	0xbd4053c1	-0.046954874
112	0xbc09e8d7	-0.00841733
113	0x3da01736	0.07816927
114	0xbb5b2d01	-0.0033443572
115	0xbd04daec	-0.032435343
116	0xbb665501	-0.003514588
117	0x3bece9f0	0.007230036
118	0xbc7cb7cd	-0.015424681
119	0x3d837e49	0.06420571

fc2.weight f4 [84, 120]
0	0xbaf3d4f4	-0.0018602894
1	0xbc7bb6b3	-0.015363383
2	0xbd3750bb	-0.044754725
3	0xbdf45e64	-0.11932066
4	0x3d71bbd0	0.059017003
5	0x3bf34515	0.0074240067
6	0x3d6edec0	0.0583179
7	0x3d3c419d	0.04596101
8	0xbdf0f80b	-0.117660604
9	0x3ac305e1	0.0014879071
10	0xbd4361b6	-0.047700606
11	0xbe212394	-0.15736228
12	0x3d3fb231	0.046800796
13	0x3d513f60	0.05108583
14	0x3e08a09a	0.13342515
15	0x3e1e15e9	0.15438046
16	0xbc154cc9	-0.009112545
17	0xbb2501a4	-0.002517798
18	0xbe278dcd	-0.16362686
19	0x3e2cacec	0.1686284
20	0xbe205641	-0.15657903
21	0xbd5f44ec	-0.05450909
22	0xbd21659f	-0.039403554
23	0xbbbaf499	-0.005705428
24	0x3cbc9554	0.023020424
25	0x3e0f5987	0.13998996
26	0xbd248ffc	-0.040176377
27	0xbd45eae9	-0.04831973
28	0x3d89bd2d	0.067255355
29	0x3d4338c6	0.047661565
30	0x3da039f6	0.07823555
31	0x3d80b759	0.06284971
32	0x3cce9526	0.025217604
33	0xbcccc332	-0.02499542
34	0xbde58c05	-0.11208347
35	0x3b01ec48	0.0019824672
36	0x3decec8e	0.11568557
37	0x3deb383b	0.114853345
38	0xbdaad25c	-0.08340904
39	0xbd40364a	-0.046926774
40	0x3d407767	0.04698887
41	0xbe111881	-0.14169504
42	0xbc35af8d	-0.011089218
43	0x3d376474	0.044773534
44	0xbd73d366	-0.059527777
45	0x3cf6e257	0.030137224
46	0x3d2c2590	0.04202801
47	0xbd9f0c2a	-0.07765992
48	0x3d6857cd	0.05672436
49	0xbcbed1bd	-0.02329337
50	0xbd8caf85	-0.06869415
51	0xbb8fe064	-0.004390763
52	0x3d1d0f61	0.038344745
53	0xbd27243c	-0.04080604
54	0xbcf107b3	-0.029422617
55	0xbc8ca8b4	-0.017170288
56	0x3cec7479	0.028864132
57	0x3d15ee16	0.03660401
58	0x3de89617	0.11356752
59	0xbc810191	-0.015747817
60	0x3c411e95	0.0117870765
61	0x3d66c08f	0.056335982
62	0x3d8ea316	0.069647
63	0xbd42fbdf	-0.047603484
64	0x3cdd24c3	0.026995068
65	0xbd2ff0b4	-0.04295416
66	0x3d03a6ed	0.032141615
67	0x3d2e140d	0.04249959
68	0x3e7fce58	0.24981058
69	0x3d880908	0.066423476
70	0xbdf251f3	-0.11832037
71	0x3e2c491b	0.16824763
72	0x3e2dffac	0.16992062
73	0xbd695fd1	-0.056976143
74	0x3e1a854f	0.15089916
75	0xbd09e958	-0.0336698
76	0xbd53a7dd	-0.05167376
77	0x3c332dfc	0.0109362565
78	0xbdc5e7b0	-0.096633315
79	0x3b883da9	0.004157741
80	0x3d129e1b	0.035795312
81	0x3e7bb30e	0.24580023
82	0x3c8d6942	0.017262105
83	0xbdbca6c0	-0.092114925
84	0xbb394b33	-0.0028273582
85	0x391650c7	0.00014335207
86	0xbe05e014	-0.1307376
87	0x3c7b8a3f	0.015352785
88	0x3c600190	0.0136722475
89	0xbe33ac58	-0.17546213
90	0xbe82e6ec	-0.25566804
91	0xbd2aabed	-0.041667867
92	0xbd805688	-0.062665045
93	0x3dd1ca49	0.10243661
94	0xbb0a835c	-0.0021135425
95	0xbd8ef4c3	-0.06980278
96	0xbd52e1fb	-0.051485043
97	0xbc8a92c7	-0.016915692
98	0xbd304c99	-0.0430418
99	0xbd7d1150	-0.06178409
100	0x3d7fb01d	0.062423814
101	0x3dccb9dc	0.09996387
102	0x3d5e3c94	0.05425699
103	0xbe0cd35b	-0.137525
104	0xbdb46985	-0.08809189
105	0x3d3332e2	0.043749698
106	0x3c9677c1	0.01836765
107	0x3d2c3ebd	0.04205202
108	0xbd886bd9	-0.06661195
109	0x3dd6089d	0.104508616
110	0x3cab8ce9	0.020941215
111	0xbd6d7115	-0.05796917
112	0x3d9d3798	0.07676619
113	0x3df5effd	0.12008665
114	0xbd163a0b	-0.036676448
115	0x3d9d9dfd	0.076961495
116	0x3de2e093	0.110779904
117	0x3d537120	0.051621556
118	0xbc52d2e0	-0.012867659
119	0xbe1a3e11	-0.15062739
120	0x3d0780dd	0.033081878
121	0x3da8765e	0.08225702
122	0xbd694bfb	-0.056957226
123	0xbd988e0e	-0.0744897
124	0xbe096221	-0.1341634
125	0x3d5f14b0	0.05446309
126	0x3e20b663	0.15694575
127	0xbd9f32e3	-0.07773378
128	0x3e15bf9c	0.14623874
129	0x3d8381f0	0.06421268
130	0x3dc1ba30	0.094593406
131	0x3db39702	0.08769037
132	0xbb2826c7	-0.0025657879
133	0x3dbe5df8	0.09295267
134	0x3e0333cd	0.12812729
135	0x3e053ae3	0.13010745
136	0xbda17c9b	-0.07885095
137	0x3d3a079a	0.045417406
138	0x3c14266e	0.0090423655
139	0x3d7f20a6	0.062286995
140	0x3d46caf2	0.048533387
141	0xbc5605ca	-0.013062904
142	0xbdf98dfe	-0.12185286
143	0x3bbfe9fa	0.0058567496
144	0xbde1b37d	-0.11020563
145	0xbe04eb4f	-0.12980388
146	0xbe1455ff	-0.1448593
147	0x3dbe5ca0	0.092950106
148	0xbc29edf9	-0.0103716785
149	0x3cde13b5	0.027109006
150	0xbd693281	-0.05693293
151	0x3d513d94	0.051084116
152	0xbc199a5b	-0.00937518
153	0xbdb68588	-0.08912188
154	0xbe158255	-0.14600499
155	0xbd590ab4	-0.052988723
156	0xbda16120	-0.07879853
157	0x3df6460a	0.12025078
158	0xbdba9e18	-0.09112185
159	0x3d93a220	0.07208657
160	0xbc587551	-0.013211564
161	0x3d08daa9	0.033411656
162	0xbe3ca59a	-0.18422547
163	0x3db5fdd2	0.08886303
164	0xbbdcc50d	-0.0067373575
165	0xbdba0237	-0.09082454
166	0xbd95d8c5	-0.07316736
167	0xbd9d2793	-0.07673564
168	0x3d604794	0.054755762
169	0x3d66f8c1	0.056389574
170	0x3d80ad02	0.062829986
171	0xbd5a82b3	-0.0533473
172	0xbd2cdc2f	-0.04220217
173	0xbdaa0f08	-0.08303648
174	0xbd2c03d0	-0.041995823
175	0xbda00fda	-0.078155234
176	0x3db45fd6	0.08807342
177	0x3c20df50	0.009818867
178	0x3d8550fb	0.065095864
179	0x3e284cc4	0.16435534
180	0xbca07fe9	-0.019592242
181	0xbd71589c	-0.058922395
182	0xbb1fef73	-0.0024404197
183	0xbd2569ee	-0.040384226
184	0x3d997a4e	0.07494031
185	0x3cdba736	0.02681313
186	0xbdbf08fb	-0.09327885
187	0xbd3bbf4e	-0.04583674
188	0xbccecb61	-0.025243463
189	0x3d92ca6a	0.07167514
190	0xbe0f21a7	-0.13977681
191	0xbdb788fd	-0.08961675
192	0x3d38cff2	0.045120187
193	0xbd40f138	-0.047105044
194	0x3e03c48f	0.1286795
195	0xbd46de79	-0.04855201
196	0xbb8a95d8	-0.0042292885
197	0x3d076409	0.033054385
198	0x3d9bb872	0.076035395
199	0xbd94ae17	-0.072597675
200	0xbd52709b	-0.05137692
201	0xbd9e55bb	-0.077311955
202	0x3caa2e2c	0.02077397
203	0x3c1e9ab8	0.0096804425
204	0x3d9c8b58	0.07643765
205	0x3e4fa833	0.20279007
206	0xbac67758	-0.0015141768
207	0x3d53e407	0.051731136
208	0xbe13fb0d	-0.14451237
209	0xbe242a10	-0.1603167
210	0x3c34b0c5	0.011028473
211	0xbdb5da17	-0.08879488
212	0x3ddca167	0.107729726
213	0xbd790115	-0.060792048
214	0x3dd9aac5	0.10628275
215	0xbe16d3e9	-0.14729275
216	0xbc08862e	-0.008332772
217	0xbd221d4c	-0.03957872
218	0xbd9b5699	-0.075848766
219	0xbd620089	-0.05517629
220	0xbdd893f1	-0.105750926
221	0xbd9388fa	-0.072038606
222	0xbceb478f	-0.028720645
223	0xbda8eafa	-0.08247943
224	0xbdc16910	-0.09443867
225	0x3d8b0e57	0.067898445
226	0x3cf0bd68	0.029387191
227	0xbda07e63	-0.07836606
228	0x3e02ca51	0.1277249
229	0xbc00c8d4	-0.007860381
230	0x3d62f298	0.055407137
231	0x3c830d1e	0.015997466
232	0xbd889811	-0.06669629
233	0x3c2f274c	0.010690521
234	0xbcd84c59	-0.026403593
235	0x3cf55621	0.029948296
236	0x3e09015b	0.13379423
237	0x3cafa124	0.021439143
238	0xbc3a02a5	-0.01135317
239	0xbabfca8b	-0.0014632506
240	0x3d4782bc	0.048708662
241	0xbc3a7e18	-0.011382602
242	0xbc84a2a0	-0.016190827
243	0xbd89f453	-0.06736054
244	0x3d20a05f	0.03921544
245	0x3d270095	0.04077204
246	0x3c8b4dbd	0.017004842
247	0x3ac038c0	0.001466535
248	0xbe1dc698	-0.15407789
249	0x3d6d33a0	0.05791056
250	0x3c30368d	0.010755193
251	0xbdab2eee	-0.083585605
252	0xbd36054a	-0.044438638
253	0xbc6149cd	-0.013750506
254	0xbdada7ab	-0.08479246
255	0x3d9cf4e0	0.07663894

fc2.bias f4 [84]
0	0x3ca585e7	0.020205451
1	0x3d0311a3	0.03199924
2	0xbdc1733f	-0.094458096
3	0xbca31b54	-0.019910492
4	0x3da93e7c	0.08263871
5	0xbb9be19f	-0.0047571207
6	0x3ddda189	0.10821826
7	0x3d941658	0.07230824
8	0x3b7edf25	0.0038890329
9	0x3da4263b	0.080151044
10	0x3dafdaa4	0.08586624
11	0xbd94fc74	-0.07274714
12	0x3bed0565	0.007233309
13	0xbd96d1a8	-0.073642075
14	0x3de78f22	0.11306597
15	0xbdbcce51	-0.09219039
16	0x3d3d22e2	0.046175845
17	0x3c6e9730	0.014562413
18	0xbda6b7bc	-0.08140513
19	0x3d8bba3a	0.06822629
20	0x3dab8b1f	0.083761446
21	0x3dbef9c6	0.09324984
22	0x3dd449a0	0.10365605
23	0x3c89a586	0.01680256
24	0x3d161c65	0.036648173
25	0xbd3dc96b	-0.046334665
26	0x3dd5ea41	0.10445071
27	0x3bee114e	0.0072652465
28	0xbd980163	-0.074221395
29	0x3d62de84	0.05538799
30	0xbbef0345	-0.007294091
31	0x3ce367cf	0.02775946
32	0x3da03b02	0.07823755
33	0xbb4f70c4	-0.0031652907
34	0xbd9944ae	-0.07483803
35	0xbdd0a194	-0.101870686
36	0x3da9a3cb	0.08283194
37	0xbcd28632	-0.025698755
38	0x3df79167	0.1208828
39	0xbded6ed6	-0.11593406
40	0x3d0c5542	0.034260996
41	0xbd59e54d	-0.053197194
42	0xbd705734	-0.058676913
43	0x3e2a0569	0.16603626
44	0xbd6bebcd	-0.057597924
45	0x3d531115	0.051529963
46	0x3df4b881	0.11949254
47	0x3dacebfc	0.08443448
48	0x3cdc07cd	0.026859188
49	0xbd88c749	-0.066786356
50	0x3db358a4	0.08757141
51	0xbd141b86	-0.03615906
52	0x3d25df86	0.04049637
53	0xbda0ac9b	-0.07845422
54	0x3cc50bb1	0.024053426
55	0x3bc84bdc	0.006112559
56	0x3db6e3ee	0.08930193
57	0xbd4f7888	-0.050652057
58	0x3c68f2ae	0.014218016
59	0x3d6e2c61	0.05814779
60	0xbd08dc75	-0.03341337
61	0x3d08782d	0.033317734
62	0xbd8c722f	-0.06857716
63	0x3d3c6323	0.04599298
64	0x3c9b8bca	0.018987555
65	0xbab83d25	-0.0014056308
66	0x3d9d2093	0.07672229
67	0x3cf7abfc	0.030233376
68	0x3c7bff4b	0.015380691
69	0xbd51c247	-0.051210668
70	0x3dc5edf9	0.0966453
71	0xbd042676	-0.03226324
72	0x3e0547b8	0.1301564
73	0x3aa8a19b	0.0012865545
74	0xbdc74f96	-0.09731977
75	0xbb7391d6	-0.0037165782
76	0xbd862ab3	-0.06551113
77	0x3d94ecae	0.072717056
78	0xbd8ed48c	-0.06974134
79	0x3cab795c	0.020931892
80	0xbd5f4625	-0.054510254
81	0xbcf4f074	-0.029899813
82	0x3d5f4174	0.05450578
83	0x3e040206	0.12891397

fc3.weight f4 [10, 84]
0	0xbc5d07c9	-0.013490626
1	0x3ddcbf50	0.107786775
2	0xbd84aa97	-0.0647785
3	0xbd6c2ada	-0.057658054
4	0xbd2a942f	-0.041645225
5	0xbd19091f	-0.037362214
6	0xbe5e2934	-0.21695405
7	0xbdfae4be	-0.1225066
8	0x3d477f3e	0.048705332
9	0xbe5f9b94	-0.21836692
10	0x3d4f272d	0.05057447
11	0x3bceb363	0.0063080057
12	0x3c3ee93d	0.011652288
13	0xbbe95cd1	-0.0071216603
14	0x3d95ce89	0.07314784
15	0xbd9a9d4f	-0.075495355
16	0xbd29383f	-0.041313406
17	0x3e0c4a96	0.13700327
18	0x3dc240fa	0.094850495
19	0x3bc10394	0.005890319
20	0x3de74746	0.11292891
21	0xbd1763b3	-0.036960315
22	0x3d3ff47b	0.046864014
23	0x3da0cd89	0.07851703
24	0xbc83743d	-0.016046638
25	0xbd75f969	-0.06005231
26	0xbe13d942	-0.14438346
27	0x3d47320f	0.048631724
28	0xbe198aec	-0.149944
29	0x3c47ac2c	0.012187045
30	0x3d8f36eb	0.06992897
31	0x3e07a1f1	0.1324537
32	0x3dfe5725	0.12418965
33	0xbdaba8e4	-0.08381823
34	0x3d9e341b	0.07724782
35	0xbd527693	-0.051382612
36	0x3cc22e13	0.02370361
37	0x3d600273	0.054689836
38	0xbdac3622	-0.084087625
39	0xbdb10878	-0.086441934
40	0x3dd06def	0.10177218
41	0x3c8412ec	0.016122304
42	0xbe271ffc	-0.16320795
43	0x3c8db57b	0.01729845
44	0x3c8fb9c6	0.017544638
45	0x3dd6bbe0	0.10485053
46	0xbdcb723a	-0.09933896
47	0x3e0bc905	0.13650902
48	0xbe50e623	-0.2040029
49	0xbb9fcf20	-0.004876986
50	0xbe332330	-0.17493892
51	0xbe201fe1	-0.15637161
52	0x3ce9ab33	0.028524017
53	0xbda58dfc	-0.08083722
54	0x3d929afd	0.07158468
55	0x3c394cdb	0.011309828
56	0x3c5b9066	0.0134011265
57	0xbd2b7085	-0.041855354
58	0xbdc5b0c6	-0.096528575
59	0xbdff7c6a	-0.12474902
60	0xbe1f6514	-0.15565902
61	0xbdf06f6a	-0.117400005
62	0xbdbe0cf6	-0.09279816
63	0xbd6f8476	-0.058475934
64	0x3ce53c47	0.027982844
65	0xbd9cecc9	-0.07662351
66	0xbb93207b	-0.004489956
67	0xbcce1928	-0.02515848
68	0x3dce907d	0.10086153
69	0xbdfdbd7e	-0.123896584
70	0x3d8564bf	0.065133564
71	0xbe191324	-0.14948708
72	0x3c334058	0.010940634
73	0x3ddb8e7e	0.107205376
74	0xbd37bd5c	-0.04485832
75	0xbdb6a6f3	-0.08918562
76	0xbd341b53	-0.04397137
77	0xbe028753	-0.12746935
78	0xbcfd31c7	-0.030907525
79	0xbe68524d	-0.22687645
80	0x3d3f344d	0.046680737
81	0x3dbdafd1	0.0926205
82	0x3cf45490	0.029825479
83	0x3d85dc79	0.065361924
84	0xbe54c767	-0.20779191
85	0xbe197220	-0.14984941
86	0xbc449812	-0.011999147
87	0xbe520cc8	-0.20512688
88	0x3e00d7bd	0.12582298
89	0x3dac41a2	0.08410956
90	0xbe42650f	-0.18983863
91	0xbdd6001f	-0.10449242
92	0xbc210047	-0.009826726
93	0x3da8b31c	0.082372874
94	0x3daa1c78	0.08306211
95	0xbd553183	-0.05204917
96	0xbe921a30	-0.28535604
97	0xbe3a323f	-0.1818323
98	0xbe4ae310	-0.1981318
99	0xbe0ba09b	-0.13635485
100	0x3d600c2f	0.05469912
101	0x3d91abee	0.07112871
102	0xbd971d05	-0.07378582
103	0x3da7eb0f	0.08199131
104	0xbceaa600	-0.028643608
105	0x3d60fda8	0.054929405
106	0xbe289b8e	-0.1646559
107	0x3dc58d1e	0.096460566
108	0xbd008aca	-0.03138236
109	0xbe250434	-0.16114885
110	0x3d691153	0.056901287
111	0x3b0daebb	0.002161904
112	0xbe027ce8	-0.1274296
113	0x3ddfa7ec	0.109207004
114	0xbe33a26d	-0.1754243
115	0x3e1471d8	0.14496553
116	0x3e4cc48f	0.19996856
117	0xbe14b983	-0.14523892
118	0xbd85b124	-0.065279275
119	0xbd9fb513	-0.07798209
120	0xbe51d702	-0.20492175
121	0xbdc06876	-0.09394924
122	0xbe04f5e1	-0.1298442
123	0xbd88e495	-0.066842236
124	0x3c5056bc	0.012715992
125	0xbc78293b	-0.015146549
126	0x3b4b98e0	0.0031066462
127	0xbdd838ab	-0.105576836
128	0x3d064ff0	0.032791078
129	0xbe1535eb	-0.1457135
130	0xbdd78ebc	-0.10525271
131	0xbe5f97ea	-0.21835294
132	0xba9015db	-0.0010992842
133	0xbd26ef99	-0.040755842
134	0x3e49c1e9	0.19702877
135	0xbdaba200	-0.083805084
136	0xbdbde52f	-0.09272229
137	0x3d838c50	0.06423247
138	0x3dd6f5b7	0.10496085
139	0x3da2b278	0.079441965
140	0x3d22e36d	0.03976767
141	0x3d199085	0.03749134
142	0xbd87405c	-0.066040725
143	0x3dff3810	0.12461865
144	0xbe9644fb	-0.29349503
145	0xbe23ffd8	-0.16015565
146	0x3c093bc9	0.00837607
147	0xbe3e321f	-0.18573807
148	0xbe0a5cdc	-0.13511986
149	0x3ec0311b	0.37537464
150	0xbdde5333	-0.10855713
151	0xbcf0847a	-0.029360045
152	0xbdc5e273	-0.096623324
153	0xbd9552fe	-0.0729122
154	0x3e05c10a	0.1306192
155	0x3e0722a4	0.13196808
156	0xbe30e75c	-0.17275757
157	0x3dff867f	0.12476825
158	0x37f93a5f	2.9710294e-05
159	0xbe520060	-0.20507956
160	0xbcc3519d	-0.023842627
161	0xbdefe62d	-0.117138244
162	0x3d620bb6	0.05518695
163	0xbebfa7e9	-0.37432793
164	0xbd4ad568	-0.049519926
165	0xbd32988a	-0.043602504
166	0xbe3bf180	-0.18353844
167	0xbe6c2dee	-0.23064396
168	0xbe73aa94	-0.23795539
169	0x3e107111	0.14105631
170	0x3d5809ae	0.052743606
171	0xbd158f08	-0.03651336
172	0xbe30df25	-0.17272623
173	0xbe1b8165	-0.15186079
174	0x3ddf3d9a	0.109004214
175	0xbe059259	-0.13044108
176	0xbe090ded	-0.13384219
177	0x3e05f1b3	0.13080482
178	0xbdaf6ef0	-0.085660815
179	0x3cbbdd0c	0.022932552
180	0x3dc16efe	0.09444998
181	0xbd5a53eb	-0.053302687
182	0xbe3f1c66	-0.18663177
183	0xbdffdac6	-0.124928996
184	0xbe40d519	-0.1883129
185	0xbe83d983	-0.25751886
186	0x3d766ba4	0.060161248
187	0xba69d9ad	-0.0008920681
188	0x3d38114b	0.044938367
189	0x3cf76c72	0.030203078
190	0x3d20c841	0.039253477
191	0x3dcafa94	0.09911075
192	0xbe2bae10	-0.16765618
193	0xbd90afa0	-0.07064748
194	0xbddd07d7	-0.10792511
195	0xbbfd5e7f	-0.007732212
196	0xbd161095	-0.036636908
197	0x3d3125e9	0.043249045
198	0xbe24c96c	-0.16092461
199	0xbcc9e854	-0.024646915
200	0x3e5c5f1c	0.21520656
201	0x3da25956	0.07927196
202	0x3dab8b65	0.08376197
203	0xbc8e27ec	-0.01735302
204	0x3daa2104	0.083070785
205	0xba04f3b3	-0.00050717144
206	0xbe7b5a62	-0.24546197
207	0x3d887d82	0.06664564
208	0x3d7552fa	0.059893586
209	0xbde745be	-0.11292599
210	0xbdddbd20	-0.10827088
211	0x3da649cc	0.081195444
212	0xbd3e7799	-0.046500776
213	0xbdead94b	-0.114672266
214	0x3cb2265b	0.021746805
215	0x3db8a370	0.09015548
216	0xbb811218	-0.0039389245
217	0x3d840115	0.06445519
218	0x3deb9317	0.115026645
219	0xbc1f2605	-0.009713654
220	0x3dd9007f	0.10595798
221	0x3db028b9	0.08601517
222	0xbc8aa1c1	-0.016922833
223	0xbd90345e	-0.07041238
224	0x3db60c0a	0.08889015
225	0xbc9edbaf	-0.019391863
226	0xbba3f0ac	-0.0050030556
227	0xbe2419ec	-0.16025513
228	0xbe4f0079	-0.20215024
229	0x3e0a0222	0.13477376
230	0xbcac1a64	-0.021008678
231	0x3d9aaad4	0.07552114
232	0x3d7fdab8	0.062464446
233	0xbdfc1275	-0.12308208
234	0x3d8024f8	0.06257051
235	0xbc732acd	-0.0148417475
236	0xbdd9f17e	-0.10641764
237	0x3d03de8f	0.03219467
238	0x3d8a97e6	0.067672536
239	0xbce0c726	-0.027438711
240	0x3d58f07b	0.052963715
241	0xbd760581	-0.060063843
242	0xbe042f17	-0.12908588
243	0xbdee5fc7	-0.11639362
244	0x3d1842bd	0.03717302
245	0xbd6f7883	-0.05846454
246	0x3d69e370	0.057101667
247	0x3b7def17	0.0038747245
248	0x3d796f6a	0.06089727
249	0x3d6bb9bb	0.057550173
250	0xbdf8f2e9	-0.121557064
251	0x3d56f17f	0.052476402
252	0x3dd8508f	0.1056224
253	0xbe92a423	-0.2864085
254	0xbe435c66	-0.19078216
255	0xbdbb9d08	-0.09160811

fc3.bias f4 [10]
0	0xbd91b09c	-0.07113764
1	0xbd40c9ee	-0.047067575
2	0x3d72ecff	0.05930805
3	0xbdaad11c	-0.08340666
4	0x3d115bff	0.035488125
5	0xbdeabcce	-0.11461793
6	0xbcd17978	-0.025570616
7	0x3e029bcf	0.12754749
8	0xbd89be4f	-0.067257516
9	0x3d1283ea	0.035770334
