models/fashion_mnist_cnn_8_filters_32_batch.pth (torch, 438606 bytes, 10 tensors)

conv1.weight f4 [8, 1, 5, 5]
000000 94 03 67 3e cb 11 94 3d 3c 22 38 3e 0b 67 68 be
       0.22559959 0.07229956 0.1798181 -0.22695558
000010 89 cc e9 3d 05 df b0 3c 95 36 fd 3d 02 8a 95 3d
       0.11415965 0.021590719 0.12363926 0.073017135
000020 80 3d c4 bc ac de c2 3d 20 aa 50 3d a4 4d 10 3d
       -0.023955107 0.095151275 0.050943494 0.035230294
000030 7e c5 57 3d af 7c 9e be 90 d2 26 be 7f 03 46 3e
       0.052678578 -0.309545 -0.1629126 0.19337271
000040 a9 bd 37 be 75 a8 63 3d 42 50 33 be 6f d1 a6 3c
       -0.17943443 0.055580575 -0.17511085 0.020363538
000050 90 b6 bb 3d c5 88 b8 bd aa b8 d4 3d f0 41 a3 be
       0.091656804 -0.09010462 0.103867844 -0.31886244
000060 46 37 3a 3e 42 0e d8 3d c7 d2 00 be 0d fe c1 3c
       0.18185148 0.105495945 -0.12580405 0.023680711
000070 e0 56 8f bb f9 01 4d 3e 65 d7 e9 bd 84 63 9b be
       -0.00437437 0.20020284 -0.11418036 -0.30349362
000080 0b b3 23 bd f7 bf b3 3e bb cd 04 3e 31 ed 86 be
       -0.03996567 0.35107395 0.12969105 -0.26352838
000090 0e 74 12 bf 07 f8 92 3d 5f d5 d4 3e a7 b3 23 3e
       -0.57208335 0.07176214 0.4156904 0.159865
0000a0 ba 8d a2 be d3 14 56 be 2a f2 04 3e ea b4 97 3e
       -0.31748754 -0.20906381 0.12983003 0.29630214
0000b0 1c 0e 17 3d 49 e6 36 be 87 8a 20 be 83 a3 21 3e
       0.03687869 -0.17861284 -0.15677844 0.15785031
0000c0 ed 3b ac 3e 6d f6 c5 bd 7a 21 b2 3d 54 13 12 3e
       0.3363947 -0.096661426 0.086977914 0.14265186
0000d0 94 b2 93 3e 11 e3 53 3e 95 ce 9e 3d ea 28 ad 3b
       0.28847182 0.20692088 0.07754246 0.0052844184
0000e0 ba c1 83 3d 01 22 42 3d 15 4c 71 bd 5a ad c9 3b
       0.06433435 0.04739571 -0.058910448 0.0061546983
0000f0 ea cf e8 3d 10 7e 2a 3c da 39 99 bd 59 a8 59 be
       0.113677815 0.010406032 -0.074817374 -0.21255626
000100 ad 4f 2b be 4a 4b 02 3e 46 ea 8a be 3b 7d b3 be
       -0.16729613 0.12724033 -0.2713186 -0.3505648
000110 df d1 fc be 0e 4e 63 be 22 ab 21 be d6 ab af 3d
       -0.4937887 -0.22197744 -0.15787938 0.08577697
000120 f3 67 6e be e8 e7 57 be b3 9b e4 bd 0e 82 4e be
       -0.23281841 -0.21084559 -0.1116251 -0.201668
000130 3a 9b 9e bd 2c 6b a0 b9 56 63 36 3e 0b 24 08 3e
       -0.07744451 -0.00030597427 0.17811331 0.13295
000140 c6 9a ba bd c6 2a ba 3d 5a b8 18 3e 32 ef 8b 3e
       -0.09111552 0.0909019 0.14914075 0.2733093
000150 20 73 e9 3c a2 5c f6 bd ca cd a8 3e c9 d1 54 3e
       0.028497279 -0.12029387 0.32969505 0.20783152
000160 8e 57 cf 3d 80 bd 1a 3e 8b bb a2 bd ac d3 ad 3d
       0.101241216 0.15111351 -0.07945927 0.08487639
000170 c9 1e f9 3d fd 04 94 3d dc ba 7a 3c fc 9a ef 3d
       0.12164075 0.07227514 0.01530334 0.11699483
000180 96 98 17 be 45 58 12 be 0a cb e0 3c 30 f8 82 bc
       -0.148043 -0.14291485 0.027440567 -0.015987486
000190 33 8f 86 bd 4c d2 07 bc e6 25 70 3e 31 9b 86 3e
       -0.06570282 -0.008289885 0.23451957 0.26290277
0001a0 15 9f f2 3d f4 9f 37 3e c6 38 e0 3c 2a ab d1 3d
       0.11846749 0.17932111 0.027370822 0.10237725
0001b0 6c 66 25 be 23 18 0a bd 0c 4e 6d bc cf 41 dc bd
       -0.16152352 -0.033714425 -0.01448394 -0.107547395
0001c0 ef 48 a6 be 2c ef 95 be e8 97 51 be ac 95 68 3e
       -0.3247752 -0.29284036 -0.20468104 0.22713345
0001d0 27 8b bb bb e1 bb 67 be 17 ea ba be dc 44 a9 bd
       -0.0057233754 -0.22630264 -0.3650672 -0.08265087
0001e0 03 01 de 3d 95 2d 11 3d d4 43 6f 3e 5e 8f 88 3e
       0.10840037 0.03544386 0.23365718 0.2667188
0001f0 0d 5a c1 3d 57 cc 54 3b b6 8e 8f be 5c 1a 04 3e
       0.09441004 0.003247043 -0.28038567 0.1290068
000200 c1 d1 e9 3e dc 3b 11 be 36 aa 50 be 20 8c f4 bd
       0.45667842 -0.14182991 -0.2037743 -0.11940789
000210 ce a1 9c 3e 02 12 9b 3e 43 ce a2 be 88 46 ee 3d
       0.30592197 0.30287176 -0.3179799 0.116345465
000220 84 e4 6d 3e 29 eb 80 3e d0 97 76 bd 49 d2 02 bf
       0.23231703 0.25179413 -0.060203373 -0.5110212
000230 8c 03 41 3e e8 b0 82 3e 88 23 aa 3d c4 27 28 be
       0.1884901 0.25525594 0.08307558 -0.1642142
000240 74 5b bb be 60 af be bd 38 e7 39 3d ef ca 16 3d
       -0.3659321 -0.09310794 0.045386523 0.036814626
000250 a2 93 58 3e e2 b1 8b be 04 50 d0 3e cb a7 33 bc
       0.21150067 -0.2728415 0.40686047 -0.010965298
000260 73 ab 9d be 26 31 ac be 4b d6 55 be 9e 81 87 3e
       -0.30794868 -0.33631247 -0.20882528 0.26466078
000270 7e 8f b5 3e ba c0 8c 3e 26 e5 4e bd 4b 8f 14 be
       0.35461038 0.2749079 -0.0505115 -0.14507787
000280 ac 18 cb bd 62 b3 94 be 5f 4a f3 3d fd 33 c5 bd
       -0.09916815 -0.29043108 0.118794195 -0.096290566
000290 33 e4 3a 3e 65 a1 9b bd 24 5d 5f be 8c a1 08 be
       0.18251114 -0.07599143 -0.21812874 -0.13342875
0002a0 64 bd c9 3d 14 d2 a2 3e da f5 d5 3d e0 19 66 3e
       0.098505765 0.31800902 0.10447283 0.22470808
0002b0 75 f9 3a be 81 2d 58 bd 59 c1 7f bd 8d 46 9a 3e
       -0.18259223 -0.05277777 -0.06244025 0.3013195
0002c0 57 0b 96 be a4 67 f6 3d 20 fd 9e bd 1b 0d 95 bd
       -0.29305527 0.12031487 -0.077631235 -0.0727789
0002d0 ab 4b 82 3e 6a d6 af be 43 ea 4e 3e db 6c 2f 3e
       0.25448355 -0.34343272 0.20206551 0.17131369
0002e0 51 d4 14 3d f5 a8 cb bd f0 64 3d 3d c0 f2 39 3e
       0.036335293 -0.09944335 0.04623884 0.18159008
0002f0 8c 57 36 bd 03 af 98 3d 65 9d 5a 3e 08 d4 5f be
       -0.044517085 0.07455256 0.21349104 -0.21858227
000300 6a fe 74 bd 3e d3 4b 3d 21 3c 01 3d 0b d6 81 3e
       -0.05981294 0.049762003 0.031551484 0.25358614
000310 05 19 a6 be 8b 2d 13 3e 85 04 ec 3d 1e 7c 41 be
       -0.32440963 0.14372842 0.115242995 -0.18895003

conv1.bias f4 [8]
000000 e3 3e 09 3c 93 d2 90 3b 43 c1 f3 be 61 55 84 be
       0.00837681 0.0044196337 -0.47608384 -0.2584639
000010 98 fc 06 be ca e4 c7 3a b0 5f 55 bd 69 e7 28 bb
       -0.13182294 0.001525068 -0.052093208 -0.0025772697

conv2.weight f4 [16, 8, 5, 5]
000000 a0 e3 14 be c0 dd 12 3c 3e 9a b9 3d a5 2d 94 bd
       -0.14539957 0.008964002 0.090626225 -0.072352685
000010 b2 2e 4f 3d 63 2b 2d be 7d 90 c1 3d 5b b2 1f be
       0.05058164 -0.16911082 0.09451387 -0.15595381
000020 70 0e 83 bd 26 b9 a8 3d 0b e5 d9 bc c4 42 07 bd
       -0.06399238 0.08238439 -0.026598474 -0.033022657
000030 d4 a9 3f be ec d6 8a 3d 1d 79 16 3e 92 b1 9e 3d
       -0.18717128 0.06779274 0.14694639 0.077487126
000040 9b 54 e4 bc d3 a6 da bd 60 bc 09 3d 72 d5 41 3b
       -0.027872374 -0.106763504 0.033626914 0.0029576686
000050 76 6b d5 3b 02 6b 0b 3d 6b 7f 87 bd b4 54 8c 3d
       0.0065130545 0.034037597 -0.066161 0.06852093
000060 d2 18 56 bd 59 a9 a4 3d 89 5b 3e be 4b 9d 93 be
       -0.052269764 0.08040113 -0.18589605 -0.28830943
000070 b5 5a 01 3e 11 0b 43 3e b4 95 45 3d bf 18 91 be
       0.12632258 0.1904719 0.04823847 -0.28339192
000080 47 87 c3 bd f0 80 69 3d 91 24 c2 bd 0e e0 e8 bd
       -0.095472865 0.05700773 -0.09479631 -0.1137086
000090 7b 27 cc bb f1 2c d2 3d 46 76 cd bd c8 5f 5a be
       -0.0062302924 0.10262478 -0.100323245 -0.213256
0000a0 8c b8 98 be 69 78 13 3e b6 67 78 3d 6b 44 b4 3d
       -0.29828298 0.14401402 0.06064578 0.08802112
0000b0 95 33 eb bb b6 ab 88 be 48 55 d4 3d 9e eb c1 3d
       -0.00717778 -0.26693505 0.103678286 0.094687685
0000c0 99 3d b1 3d 9a 49 17 3d ba 5b 88 be 77 d9 f9 bc
       0.08654327 0.036935426 -0.26632482 -0.030499203
0000d0 b0 c1 8f 3d 8a d2 d8 bd 53 76 12 3e 70 c4 9e bd
       0.07019365 -0.10587032 0.1430295 -0.07752311
0000e0 01 e9 90 3d e8 d0 8e ba c2 dc 15 bd ca df 03 3e
       0.07075692 -0.0010895999 -0.036587484 0.12878338
0000f0 ef eb e8 3d f7 e0 d6 3d 0c fc 74 be 33 43 a8 bd
       0.11373126 0.104921274 -0.23924273 -0.08215942
000100 13 8c 27 3e 14 e9 50 3e d1 a6 fb 3c 73 23 3b bd
       0.16362028 0.20401412 0.030719193 -0.045688104
000110 5b 89 21 bd 7c d7 4b bc b3 78 fb 3d fb 26 84 3d
       -0.039437633 -0.012441512 0.12278881 0.064527474
000120 fe 4a ce 3d 2c 15 8f 3d c1 90 0f 3b 5e 46 1b be
       0.100728974 0.0698646 0.0021906348 -0.15163562
000130 e2 10 15 be 3a d8 42 be e9 f4 f8 bd b3 f5 37 bc
       -0.14557222 -0.19027796 -0.12156088 -0.011228013
000140 66 e8 b0 bc d0 86 4f be 7a 4d 6a be 85 d7 15 be
       -0.021595191 -0.2026627 -0.22881117 -0.14632995
000150 e4 64 5d 3d dc 8f 1e bd f5 3f 48 be 91 6c 2d be
       0.054051295 -0.038711414 -0.19555648 -0.16935946
000160 df 15 2a be f4 a0 32 be 88 cf 54 be ec f8 4d be
       -0.16609906 -0.17444211 -0.20782292 -0.20114487
000170 db 7f 81 be c8 2c 27 be 23 5d 81 be 9a dc be be
       -0.25292858 -0.16325676 -0.2526637 -0.3727768
000180 dc 0e 87 bc 13 04 14 be 59 e9 de bc 62 8b 79 be
       -0.016486578 -0.14454679 -0.027210878 -0.24369577
000190 2f 70 b3 3b 06 1f 64 bb ab c4 29 3d 53 cc a2 bc
       0.00547602 -0.003480853 0.041447323 -0.01987282
0001a0 e7 5d bc bd 28 d7 93 bd df 1e f9 bc a7 0a d3 bd
       -0.09197598 -0.07218772 -0.030410228 -0.10304766
0001b0 53 50 39 bd af 25 01 3e d2 dd 67 3c a2 e5 92 bd
       -0.04524262 0.12612031 0.014152007 -0.07172705
0001c0 a1 97 50 be 97 a2 43 3d 1a fe 03 3e d7 d9 42 3d
       -0.20370342 0.04776248 0.12889901 0.04757103
0001d0 b7 21 58 bd f4 63 8f bd 6f 5b 0f be 54 5c 0c bc
       -0.052766528 -0.070014864 -0.13999723 -0.008566935
0001e0 c6 c8 e3 3d 89 31 34 bc fd 53 f8 3c 3e 1b 09 bd
       0.11122279 -0.010998138 0.030313486 -0.033473246
0001f0 47 ec 1f bd b4 9e bf bd 52 cd f5 3d 4d cf d9 3c
       -0.03904369 -0.09356442 0.12002052 0.026588107
000200 e4 b5 13 bd f2 07 37 3e bc 25 f1 3d 82 ff 12 3e
       -0.036062136 0.17874125 0.117747754 0.14355281
000210 e1 cd d7 bd 91 b1 46 3e 19 2c 2b 3e 7a 85 4e 3e
       -0.10537315 0.19403674 0.1671604 0.20168105
000220 ef 4d 37 be ca 97 8f bd fe 87 10 3e 09 a5 e1 bd
       -0.17900823 -0.07011373 0.14114377 -0.11017806
000230 90 39 53 3d 9a ca 88 be 03 8e 00 bc e8 60 ae bc
       0.051568568 -0.26717073 -0.007846358 -0.021286443
000240 23 1d c7 bd d5 a4 0b 3d 31 09 8e 3d 7e 93 b4 bd
       -0.09722354 0.034092743 0.06935347 -0.088171944
000250 da bd b2 bc 77 38 8e bd 8b bf 79 bd 90 97 7d bd
       -0.021819044 -0.069443636 -0.060973685 -0.06191212
000260 5f 8e 09 3e 96 b4 fb 3d 6d 1c 03 be a3 32 65 bd
       0.13433217 0.122903034 -0.12803812 -0.055956494
000270 0b f8 5f 3d 18 89 33 3e 3f e7 14 be 0f 0d dc bd
       0.05467991 0.17532766 -0.14541338 -0.10744678
000280 01 ca 64 b9 d6 d3 4b 3e 03 66 10 bd 47 2d 95 3c
       -0.00021819027 0.19905028 -0.035253536 0.018210066
000290 28 e7 27 3e 6b 9a 62 bb d7 4d 39 3d b1 96 32 be
       0.16396773 -0.0034576904 0.04524025 -0.17440297
0002a0 19 0b 7d 3d 8d 87 bb 3d 22 2e 3a bd a5 38 f1 bd
       0.06177816 0.09156714 -0.045454152 -0.11778382
0002b0 76 50 1d be 91 1f 81 bd 0c de b2 3d 5e 57 48 3d
       -0.15362725 -0.06304849 0.08733758 0.048911445
0002c0 b0 ee 81 bd af 39 3a be 1b 15 2d be 9d 52 96 be
       -0.06344354 -0.18186067 -0.16902582 -0.29359904
0002d0 a0 5d 61 3d e4 a8 6d 3d 8b cf 24 be e8 55 16 be
       0.05502093 0.058022395 -0.16094796 -0.14681208
0002e0 65 32 02 be 66 7a 2c 3d 8f 0e 3f be 0b 5d 91 bd
       -0.12714536 0.042108916 -0.18657897 -0.07097825
0002f0 fd e9 a9 bd bf 1d 9b be 4d 7c e3 bd 52 94 19 be
       -0.08296583 -0.30296132 -0.11107693 -0.14997986
000300 00 7a ec bd 44 cd d4 bd dc dc 17 bd 4e e1 4c bd
       -0.11546707 -0.10390714 -0.037075862 -0.050019555
000310 8f fd 24 bd 2c ec 04 bd dd 6b c3 bd 8c 2f 1a bc
       -0.040280875 -0.032451794 -0.09542058 -0.00941075
000320 a3 85 f6 bd b5 26 aa bc 37 85 6a be 16 b4 ae bb
       -0.12037208 -0.02077041 -0.2290238 -0.0053315265
000330 1a dc 97 bc a4 f0 7a be dd 42 d7 bb f4 22 aa bd
       -0.01853757 -0.2450586 -0.00656925 -0.08307448
000340 bb c0 6c bd d7 65 a3 bd 31 cd cf 3a 54 9d 88 3d
       -0.05780099 -0.07978409 0.0015853998 0.06670633
000350 cb 33 1c be 07 81 3e bd 99 27 b6 bc 57 be 60 3c
       -0.15254132 -0.04650977 -0.022235679 0.013717256
000360 4e 16 5d 3d b5 86 41 be a6 50 8d bd 10 bc 15 be
       0.05397635 -0.18899043 -0.06900148 -0.14622521
000370 75 dc 4d bc f4 21 32 3c 99 89 77 be 5b 42 79 bd
       -0.012564768 0.010872353 -0.24173583 -0.060854297
000380 98 75 af 3c 94 8d 3d bc 15 6b d3 3d 16 df ab bc
       0.021418378 -0.011569399 0.10323159 -0.0209804
000390 d4 0c 0a be 58 33 f4 bd 5d a8 be 3d 9a 0a 7e 3c
       -0.13481456 -0.119238555 0.093094565 0.015505457
0003a0 cf 9e 0f bd 06 73 81 3b 73 f7 81 be 53 f2 49 3e
       -0.03506356 0.0039504794 -0.253841 0.19721346
0003b0 ec d4 cb bb ae af 3a 3e 10 e4 0d 3b 94 78 24 be
       -0.0062204506 0.18231079 0.0021650828 -0.16061622
0003c0 d4 09 5c 3e 64 03 d0 bd e7 41 59 3e 0a 94 b1 3d
       0.21488124 -0.10156897 0.21216546 0.08670814
0003d0 86 53 63 3b 25 81 c2 3d 4b 8e 05 be ad e4 11 3c
       0.0034687235 0.094972886 -0.13042562 0.008904618
0003e0 83 da 95 3d 0d a9 04 3e 41 f8 ab 3c fb bf 17 bd
       0.073170684 0.12955113 0.0209924 -0.03704832
0003f0 9e 82 f6 bc 98 2a 37 bd f4 30 de 3d ea c6 35 be
       -0.03009158 -0.044718355 0.10849181 -0.17751661

conv2.bias f4 [16]
000000 97 c0 13 be 99 e3 cd bd 0f 4f 62 3e a5 e4 93 bd
       -0.14428936 -0.100531764 0.22100471 -0.07221345
000010 37 cf 5a bc a8 47 c8 bd a3 e8 0a be a0 eb 64 3e
       -0.013355068 -0.09779292 -0.13565306 0.22355509
000020 2a d1 d3 bd df f9 6d be 69 53 e5 3d ba f4 ce 3d
       -0.10342629 -0.2323985 0.1119755 0.10105272
000030 33 9f 67 bd ba f9 59 3e f7 4b bf bc 5d 2d ab 3c
       -0.05654831 0.2128667 -0.023351653 0.020895654

fc1.weight f4 [120, 784]
000000 1a 0a d1 bc 75 03 0d bd f9 98 cf 3c ab 0b 8f 3c
       -0.025517512 -0.034427125 0.025341498 0.017461618
000010 df 29 cf 3c 2e 8f b0 3c 6c f8 32 bd 5d e6 63 bc
       0.02528852 0.021552648 -0.043693945 -0.013909903
000020 14 84 0f bc 67 cd 0b bd 2f c6 0f 3d e2 7d 10 bd
       -0.008759517 -0.034131434 0.035101112 -0.0352763
000030 4d c1 31 bc 21 81 9e 3c 60 61 bb bc 0f bd 96 bb
       -0.010849309 0.019348683 -0.02287358 -0.0046001743
000040 df ae 91 3c c1 bc be 3c 81 96 36 bd 18 2b a2 bc
       0.01778358 0.023283364 -0.044577125 -0.01979594
000050 66 a9 1a bd af 58 e5 3b 56 dd 16 bd ff b1 a0 bc
       -0.037759207 0.0069990973 -0.036832176 -0.019616125
000060 1f a0 cc 3c 28 32 15 3c 84 b4 c7 3b 04 5f a0 bb
       0.024978695 0.009106196 0.006094517 -0.0048941392
000070 af 93 61 3b b4 72 ce ba 6f 58 48 bc d6 8e 85 bc
       0.0034420302 -0.0015750737 -0.012228115 -0.016303461
000080 9a a2 29 bd 09 5d 1c bc 93 20 cc 3b fa 5f 23 bd
       -0.041414835 -0.009543666 0.006229469 -0.039886452
000090 72 0c 88 bc 3a 33 97 bc 87 b3 f8 bc d4 5c 31 bd
       -0.016607497 -0.018457044 -0.030359043 -0.04330142
0000a0 95 3c ea 3c 78 49 61 3c 24 bc de 3b bf 20 e8 bc
       0.02859334 0.0137504265 0.0067973305 -0.028335927
0000b0 1e 62 be bb 50 12 1b 3b d7 7b 46 bd 7f e2 d7 3c
       -0.0058100363 0.0023662038 -0.048457947 0.026353119
0000c0 bd bc 89 3c ba 18 3c 3c 15 31 ad ba 71 f0 06 3d
       0.01681363 0.011480505 -0.001321348 0.032944147
0000d0 f3 26 0d bc 45 88 06 bc e9 4b 1d bd 01 ed 41 bd
       -0.008615243 -0.0082112 -0.03840247 -0.047345165
0000e0 1a 74 c8 bc c8 3b 4c bc cf d9 a6 3c 5b 3f 50 3b
       -0.024469424 -0.012465425 0.020367531 0.0031776044
0000f0 3c c7 57 bc 34 83 a0 bb c5 d1 c4 bc 3c 74 00 bc
       -0.01317006 -0.004898453 -0.024025807 -0.007840212
000100 9f 7f 96 3c f4 a1 90 3c 1d 08 0a 3d 5b 28 54 3c
       0.018371401 0.01765535 0.033699144 0.012949075
000110 d0 1e 97 3c da 2c 9d 3c a0 8e f8 bc ae 3a 47 bd
       0.01844731 0.019186426 -0.030341446 -0.048639946
000120 8d 0f 5c 3c d7 8f d8 3b a7 c9 22 bd 0d 8c e7 bc
       0.013431442 0.006608944 -0.039743092 -0.028265024
000130 27 78 b6 bc c9 73 14 bd 58 f9 1d bd e8 3c a1 3b
       -0.02227409 -0.036243234 -0.03856787 0.0049205907
000140 9c 0e c7 3c d7 8b a6 bb a8 7f 6c 39 a0 7e ca bc
       0.024298958 -0.005082588 0.0002255427 -0.024718583
000150 db 64 a7 3c 8a d2 08 bc a2 c0 a2 bb d5 ea 4e 3c
       0.020433834 -0.008350978 -0.0049668113 0.0126292305
000160 d8 0b 1a 3c 72 40 9e 3c fd cf 48 bc e4 5c 88 bc
       0.009402238 0.01931784 -0.0122566195 -0.016645856
000170 fa 99 23 bc dd e5 d2 3c f2 50 92 3c 2b f1 0c bd
       -0.009985441 0.025744373 0.017860863 -0.034409683
000180 04 e3 17 bd 58 0f 95 3c 70 ea 92 3b 7b 01 be bb
       -0.037081733 0.018195793 0.0044835135 -0.0057985163
000190 10 f7 30 3c 5b a2 41 3b 8e 21 3f bd 67 4a 42 bd
       0.010801092 0.0029546234 -0.04666286 -0.047434237
0001a0 94 35 0a 3b a0 f3 48 3b 6b 47 be b9 1a 5f 52 bc
       0.0021089064 0.003066279 -0.00036292835 -0.012840057
0001b0 05 c1 d1 ba 9e 41 48 3c 38 d2 f8 3b 54 5a b6 3c
       -0.0016002959 0.012222676 0.0075934194 0.022259869
0001c0 1b ef 0a bd 5c c5 94 3c 7a af 3e bd 6f a8 92 3c
       -0.033919435 0.018160515 -0.046554066 0.017902581
0001d0 41 e5 fb ba 59 92 3b bc 6f 28 0d bc b6 0e da 3c
       -0.0019218103 -0.011448466 -0.008615597 0.026618343
0001e0 b8 0e 84 bb c6 f6 b6 3c a6 e1 02 bd 80 be a5 bc
       -0.004030075 0.022334468 -0.031953476 -0.020232439
0001f0 33 92 5a bc bd 12 26 bc 26 90 63 bc 70 ae b2 bb
       -0.013340521 -0.0101363035 -0.013889348 -0.0054529235
000200 18 4f 82 3c be a2 1c bc b4 e9 3b 3a d9 a4 81 3c
       0.015906855 -0.009560285 0.00071683084 0.015825676
000210 3b 93 2a 3d c0 f0 19 3a e5 92 37 bd ef 2a 03 bd
       0.041644316 0.00058723614 -0.044817824 -0.032023367
000220 8b a2 b3 3c 97 33 3d bd c2 a9 b8 bc 32 8e 2e 3c
       0.021928092 -0.046191778 -0.022541884 0.010654019
000230 bc 10 74 bc 82 74 5b bc d4 16 42 bc 36 3a 08 bd
       -0.014896568 -0.013394477 -0.011846263 -0.03325864
000240 ca cb 68 bb 16 61 62 3c c9 28 41 bc 0e 15 8e 3a
       -0.0035521858 0.013817092 -0.011789509 0.0010840015
000250 1b ed 45 3b 33 46 b7 3c 5c 85 a7 bc 7e e5 a1 3c
       0.003020114 0.02237234 -0.020449333 0.01976275
000260 3b 89 2d bd fe 60 f3 bc 23 08 75 3c 83 21 9f bc
       -0.0423672 -0.029709335 0.014955553 -0.01942516
000270 80 fd 4e 3a eb 88 b1 3c 7b fe b9 3c 93 f7 1c 3c
       0.0007896051 0.021671733 0.022704354 0.009580511
000280 7a 87 2c 3c fa a2 1f bd ca 67 35 3d 6f 5c 7e bc
       0.010530347 -0.038973786 0.044288434 -0.015524968
000290 e0 81 b5 bb 2f 15 ab bc c4 29 34 3c a7 52 78 bc
       -0.005539164 -0.020884125 0.010996286 -0.015156425
0002a0 c6 3c 0d bd 8b 32 37 3d 20 50 9b b9 ea b4 04 ba
       -0.034481786 0.044725936 -0.00029623602 -0.00050623587
0002b0 0a 08 87 3a 60 b4 e1 bc 27 84 96 3c 6e 1e 15 bd
       0.0010302078 -0.02755183 0.018373562 -0.036405973
0002c0 b7 57 6a bc c6 bb e4 bc 6c af e8 3b f4 a2 71 3b
       -0.014303139 -0.027921569 0.00710099 0.003687081
0002d0 9e e7 2d 3b c4 e8 39 bc ff 99 82 bb 77 ee 7a 3c
       0.002653576 -0.011347 -0.003985643 0.0153156435
0002e0 96 31 12 bc 5b 96 4d 3c 53 04 b4 3c a3 fa 36 3c
       -0.008922955 0.012548055 0.021974718 0.011168155
0002f0 7f 77 ba 3a 3c ba 10 bd 38 dd b8 bc 92 ea 35 3c
       0.0014226286 -0.035333857 -0.022566423 0.011103289
000300 f9 80 25 bd 74 81 c2 3c 57 ee 72 bb 5e 49 4d bc
       -0.0404062 0.023743369 -0.003706833 -0.012529699
000310 9c f8 66 bc a5 ff 2c bd d5 7f 11 3c 61 09 2b 3c
       -0.014097359 -0.04223599 0.008880575 0.010439248
000320 e8 f6 10 bd 91 7a 85 bc 8c 85 b0 bb 97 e1 15 bc
       -0.03539172 -0.016293796 -0.005387014 -0.009148023
000330 0f d3 a8 3c e2 8c 43 bb cb 55 2e bd 56 5b c2 39
       0.020608453 -0.0029838611 -0.042562287 0.00037070614
000340 f9 53 59 bc 90 3f ba bc 05 ef b2 bb ce 92 bc bc
       -0.01326465 -0.022735387 -0.0054606223 -0.02301922
000350 9a 97 1c 3d 21 8a 50 ba bc 7e d8 bc 24 45 24 3b
       0.038230516 -0.0007955153 -0.02642762 0.0025065625
000360 20 78 ba 3c 77 8d 1b ba ee 94 eb bc 1e 7d 9e bb
       0.022762358 -0.00059338607 -0.028757539 -0.0048366925
000370 fa b9 38 3c f3 bb a1 bc bf 92 8d bc ce 37 83 3c
       0.011274809 -0.019742941 -0.017281888 0.01601782
000380 86 ce 82 bb 36 ba cd bc 78 48 37 3c 64 91 94 bc
       -0.0039919047 -0.025113206 0.0111867115 -0.018135734
000390 3c 83 2a bd f4 87 13 bd ab 24 99 3c 1c 4d 0a bd
       -0.04162906 -0.036018327 0.018694242 -0.033764943
0003a0 56 59 37 3c ff 51 a3 3c 6b 00 e8 3b cf 49 e8 bc
       0.011190733 0.01993656 0.007080128 -0.028355507
0003b0 44 ac 38 bd 1c de b4 bc 62 da 8a 3c b8 a7 77 bc
       -0.04508616 -0.022078566 0.016949836 -0.015115671
0003c0 c0 a6 9b 3c 15 90 17 3c 92 e0 80 3c 7a 2f a2 bc
       0.019000411 0.00925066 0.015732083 -0.01979803
0003d0 5c ed d2 bc ea 10 bc bc f3 4a ec 3b 13 29 f1 bc
       -0.025747947 -0.022957284 0.007211083 -0.029438531
0003e0 9c 77 dd bc db 70 b7 bc 81 2b 8c 3c 74 36 f6 bc
       -0.027034573 -0.02239268 0.017110588 -0.030055262
0003f0 c7 42 d1 bb 20 50 98 bc 77 7d bc 3b 88 fc 46 bc
       -0.0063861343 -0.018592894 0.0057522613 -0.012145169

fc1.bias f4 [120]
000000 38 96 93 bc 39 1f 10 3d 9d 74 53 3d 73 f0 46 3d
       -0.018015966 0.035186026 0.051624883 0.048569154
000010 eb 77 1e 3c 4d 37 4c bd d7 70 90 3d 14 bf 0e 3d
       0.009672145 -0.049857426 0.070527725 0.034850195
000020 91 59 8d 3d 0f 58 d7 bc b2 3c c5 3d c6 bf dc 3d
       0.06901849 -0.026287107 0.09630717 0.107787654
000030 4e cc 8e bd e2 ac 9d bc 67 79 d4 bb 7b 11 23 3d
       -0.06972562 -0.019247476 -0.006484199 0.039811593
000040 f7 a3 a2 3d 9b fc 0c bd df 4c 26 bd 58 f2 26 bd
       0.0794143 -0.03442059 -0.040600654 -0.04075846
000050 ec 85 5a bd 2a c9 17 bd 0c 1f 14 3d 7b e6 19 3c
       -0.053350374 -0.03705708 0.03616242 0.00939333
000060 4a bc 2b bd d1 78 3b bc b6 b6 d1 bc 9b f2 a5 3c
       -0.041927613 -0.011442379 -0.025599819 0.020257285
000070 9a 70 b4 bc 34 e3 78 bd 7b 44 cf 3d 0e 62 66 3c
       -0.022026349 -0.060763553 0.101204835 0.014061464
000080 a1 09 12 bb a1 27 fa 3b 9b 9b 8c bc b2 af 2d bc
       -0.0022283571 0.0076341187 -0.017164042 -0.010600971
000090 78 12 2c 3c 0d 7b 3f 3c 06 53 95 bd cb 47 ae bc
       0.01050245 0.011687052 -0.07291226 -0.021274468
0000a0 09 80 cb 3c ef ee 27 bc 1a a7 30 3d 9c fd f4 3a
       0.024841325 -0.010249837 0.04312811 0.0018691304
0000b0 2c de a6 bb 2b e5 3c 3d 9b a8 8c bc 1e 38 58 bd
       -0.005092403 0.04611699 -0.017170241 -0.052787893
0000c0 dd e5 d2 3b d5 37 1c 3d 3a 42 89 bb 50 75 14 3c
       0.0064360932 0.038139183 -0.004188803 0.009061173
0000d0 66 18 c7 bc 4f 6a 00 3e b2 f4 28 3d 63 62 1f bd
       -0.024303626 0.12540554 0.041248985 -0.03891219
0000e0 3b 41 85 3d 72 02 da 3c d2 f7 94 3c 46 51 cd bc
       0.06506582 0.026612494 0.018184576 -0.025063168
0000f0 5d 51 1f 3d 8a 71 aa 3d 12 91 a4 bc a1 0a ae 3d
       0.038895953 0.08322437 -0.020088706 0.08498121
000100 25 7f 42 bd 25 cb e3 3b f6 81 24 bb bc 42 c9 3c
       -0.047484536 0.006951707 -0.0025101877 0.024567954
000110 5f a7 00 bd e2 55 c1 3b 5c 52 9a bd 58 b1 55 3d
       -0.031409618 0.0059001306 -0.0753524 0.05217108
000120 03 c5 5e 3c c5 28 4d bc 83 77 95 3d 99 f2 a9 3d
       0.013596776 -0.012521927 0.07298186 0.08298225
000130 b0 4d d6 3c 96 e6 4a 3c a8 08 6a 3d 92 a1 bb 3d
       0.026160091 0.0123840775 0.05713716 0.091616765
000140 60 bc 8e 3d cf f5 0b bd 60 9c 61 bb 08 83 a3 3d
       0.069695234 -0.03416997 -0.0034425482 0.079839766
000150 8b 68 f6 3c 08 f0 83 3d 5e d2 2c 3d b1 02 1c 3c
       0.030079147 0.06442267 0.04219281 0.009522126
000160 0d 91 dc 3d d6 1b cd bc f0 5f d8 3c 19 4d 1f 3c
       0.10769854 -0.025037687 0.026412934 0.009722971
000170 95 2f 34 bd 90 a3 94 3d 2c 0e 2b bd 82 73 2b 3d
       -0.04399069 0.072577596 -0.041761562 0.041858204
000180 1d f9 24 bb f5 6f 0a bd 4a 19 03 bd 71 fa bf 3d
       -0.0025172897 -0.033798177 -0.03200654 0.0937394
000190 96 48 68 3d ec 64 cd bc 99 3e 60 bd a4 3b 13 bc
       0.05670985 -0.025072537 -0.054747198 -0.008986387
0001a0 7e eb 83 bb d5 b8 7e 3b ab 2c b2 bd 05 01 7b 3d
       -0.0040258756 0.0038867493 -0.08699926 0.06128027
0001b0 26 18 0e bd da 0a cd 3d 8a bc fa 3c ec a3 df 3b
       -0.034691 0.100118354 0.03060748 0.006824961
0001c0 95 9d f6 3b 0e 89 88 3d 5a 96 4a bd 73 5e c3 bc
       0.0075261095 0.06666766 -0.049459793 -0.023848748
0001d0 d8 5d 16 3c 25 21 8a bc 70 75 c2 3d ee 02 17 bc
       0.0091776475 -0.016861508 0.09495056 -0.009217007

fc2.weight f4 [84, 120]
000000 11 70 94 3d b7 03 92 bd a3 1f 98 3d 7f c1 37 bb
       0.072479375 -0.07129615 0.07427909 -0.0028038917
000010 c0 41 82 bd 5c f5 b7 bd b7 1b b7 3b fd 0c 02 3e
       -0.06360197 -0.089823455 0.0055880207 0.12700267
000020 4a 3c 2e 3c e6 d8 74 3d bc 89 9a 3a 03 ff 21 be
       0.010634491 0.059777163 0.0011790316 -0.15819936
000030 0e ce 8f 3b 71 0b aa 3d e3 28 a8 3d cd bb a0 be
       0.0043885773 0.083029635 0.082109235 -0.3139328
000040 e2 e5 7b bd 2e a4 86 3d 50 a9 5e bd 94 b7 b2 3c
       -0.06149853 0.065742835 -0.054360688 0.021816052
000050 dc 0d 56 3d 2d 17 f8 3c 1c 30 0d 3e 9b b1 c0 bc
       0.05225931 0.030284489 0.13787884 -0.023522189
000060 73 03 59 3e af 9d 3c 3e aa 82 d9 bc ad 66 f8 bd
       0.21192722 0.18419527 -0.026551563 -0.12128959
000070 9c 99 0b be b7 f2 c4 3b 0a 8a 63 3c 04 78 52 be
       -0.13632816 0.006010379 0.013887892 -0.20553595
000080 11 5f 60 3d 4e 62 ce bd 12 8d 29 bd ba 07 dc 3d
       0.054778162 -0.10077344 -0.0413943 0.10743661
000090 a0 50 cd 3d 91 fd b7 3c 7f e6 05 be 92 74 02 3d
       0.100251436 0.022459777 -0.13076209 0.03184945
0000a0 bd 9b a5 bd 36 32 b5 3d 8b f4 50 3c 83 d8 a6 bd
       -0.08086345 0.088474676 0.012753616 -0.08146765
0000b0 cf a1 fb bb b1 32 00 3e dd be 65 be 77 98 04 be
       -0.007679201 0.12519337 -0.2243609 -0.12948786
0000c0 82 6d d2 bc e7 15 be 3d 7e 49 ed bd 56 4e bc bd
       -0.025686983 0.09281521 -0.11586283 -0.09194629
0000d0 ee ab 3d bc 92 75 86 3d b7 57 9a 3d 2e 4b 25 3a
       -0.011576636 0.065653935 0.075362615 0.0006305453
0000e0 3d 91 48 bd f9 ea 9e 3d 0b 66 f9 bc 3d b6 ef bc
       -0.048966635 0.07759661 -0.030444166 -0.029261703
0000f0 58 3e d1 3d 94 b3 2e 3e f5 d6 23 3e bf 8a 05 be
       0.10216969 0.17060691 0.15999968 -0.13041209
000100 04 f0 4d 3c f0 1e 17 bb 98 c3 af 3d ca b4 53 3e
       0.012569431 -0.0023059212 0.085822284 0.20674434
000110 12 76 c6 bd e9 1c 91 3d 58 4a 2c bd 53 c7 f2 3d
       -0.09690489 0.07085592 -0.042063087 0.11854424
000120 50 da a9 3d 65 16 bc 3d 3f 29 40 be f5 51 f1 3b
       0.08293593 0.09183959 -0.18765734 0.0073645064
000130 1c 60 f0 bd 72 6c 28 3c b3 2a 72 3c 1b 88 ef bd
       -0.117370814 0.010279762 0.014780688 -0.11695882
000140 d3 82 96 bd 1b 4e a0 bd 3c 2c 16 3d 08 08 28 3e
       -0.073491715 -0.078273974 0.03666328 0.16409314
000150 27 2d 17 be 5e 5e 4c 3e 8b 42 38 bd f5 f3 18 bd
       -0.14763318 0.19957873 -0.044985335 -0.03734203
000160 5b c1 8e be fd 2d e6 bc 05 3c c6 3d bc bf 41 bd
       -0.27881894 -0.0280981 0.096794166 -0.047301993
000170 36 a6 17 bd 8e b3 ea bd 66 71 37 be 39 ef c9 bd
       -0.037023745 -0.114600286 -0.17914352 -0.09860081
000180 9e b0 ee 3c 82 79 46 3e 38 bf b0 bc 5b b1 67 3d
       0.029136952 0.19382289 -0.021575555 0.056565624
000190 46 05 83 bd 28 e5 c4 3d 95 f4 99 3d d5 31 95 bd
       -0.0639749 0.096140206 0.075173534 -0.07284895
0001a0 61 ea cd 3b e3 88 17 bd 49 1e c5 3d 91 b3 67 bd
       0.0062840437 -0.03699578 0.09624917 -0.056567732
0001b0 28 86 15 3c 2e 61 01 3e fd 5a 78 bd 67 eb 2a 3e
       0.009126224 0.12634727 -0.06063365 0.16691361
0001c0 41 6f f5 3d 1f 8c 02 3e 58 b9 94 3b 27 13 e3 bd
       0.119841106 0.12748764 0.0045386963 -0.110876374
0001d0 c4 0a 02 be d3 6b 07 3e 22 24 9e bb 7f 2a 7d 3d
       -0.1269942 0.13224725 -0.0048260847 0.061808106
0001e0 72 b9 94 3d 06 ca 41 3e 05 bc 6c 3e 32 f7 25 3e
       0.072619334 0.18924722 0.23118599 0.16207579
0001f0 38 58 bd bd ba 6f 73 3c 05 a2 5f 3e 85 d2 04 bd
       -0.09245342 0.014858181 0.2183915 -0.03242733
000200 06 00 b1 bd 8e c8 d3 bd ac 66 37 3d d4 69 10 3e
       -0.086425826 -0.10340987 0.04477565 0.1410287
000210 b5 40 b1 bd bc 91 a0 3d 28 f0 11 bd 53 9b 49 be
       -0.0865492 0.078402966 -0.03562942 -0.19688158
000220 62 65 18 3e 3e 98 d1 bd 15 29 95 bc 16 77 22 3d
       0.14882424 -0.10234116 -0.018208066 0.03966435
000230 ee 7a 87 bd b0 14 0c bd 7d 1a 39 3d a4 a9 26 be
       -0.06615244 -0.034199417 0.045191277 -0.1627565
000240 bf 4c 09 bc c1 5a 42 3d e4 f5 f4 bd 3f 1c c7 ba
       -0.008380114 0.04744983 -0.119609624 -0.0015190913
000250 2b ca 89 bb fc 13 1c 3d a1 97 1d bc 40 0e 95 3d
       -0.0042050085 0.038104996 -0.009618671 0.072781086
000260 00 9d 87 ba a1 e9 07 be 57 41 c3 3d d7 e8 16 bd
       -0.0010346472 -0.13272716 0.09533947 -0.036843147
000270 2a 21 01 3e 28 43 d4 3c 53 c5 eb bc e0 ae 89 3c
       0.12610307 0.025910929 -0.028780615 0.01680702
000280 be d8 c7 3d ed 13 2b 3e fb c5 4a be 80 31 33 bd
       0.09758137 0.1670682 -0.19802086 -0.04374838
000290 ab 60 85 bd da 17 d0 3d 63 6f fb bd 67 f1 cf 3c
       -0.065125786 0.10160799 -0.12277105 0.025383664
0002a0 59 a1 8a 3d c9 d7 7d 3d 5d 15 1e bd 84 85 51 3c
       0.06769056 0.061973367 -0.038594592 0.01278818
0002b0 3e 05 0c bc 51 ac 34 3e a9 10 19 be de 33 db bd
       -0.008546172 0.17643858 -0.14947762 -0.10703252
0002c0 02 a4 0e bd 21 55 50 bd f5 5a dd 3c 6a 29 91 bc
       -0.03482438 -0.050862435 0.02702091 -0.017719943
0002d0 53 8a a3 bd 9a 92 52 3d 2c a1 29 be 38 ee 0c 3e
       -0.079853676 0.05140934 -0.16565388 0.13762748
0002e0 a6 60 8f 3d 91 63 bf bd 48 fe 14 ba 4e da 5a be
       0.07000856 -0.09345163 -0.0005683643 -0.21372339
0002f0 c8 56 90 bd cc 15 6d be c7 6a d9 3c 67 d6 eb 3d
       -0.07047802 -0.23152846 0.026540173 0.115155034
000300 5f 43 a2 3d 90 26 c4 3b 40 b6 d9 3c 1e cb b7 bd
       0.07923006 0.0059860423 0.026576161 -0.089742884
000310 f3 31 2a 3e 2c 40 0c bd 86 b8 f1 3d 4d 38 00 3d
       0.16620617 -0.034240887 0.11802773 0.031303693
000320 21 2d 8e 3d 0c 62 e1 3c 41 98 75 bd a9 c0 bf 3d
       0.069422014 0.027512573 -0.059959654 0.09362919
000330 a2 5d b5 3c 1f f4 8a 3c af 1b e5 3d 9a 7a 73 3b
       0.022139374 0.01696211 0.11186921 0.0037151934
000340 b5 e5 b5 3d 48 ee 37 3d 1f 6b 18 be 8c cf 97 3d
       0.08881704 0.044904977 -0.14884613 0.07412633
000350 0d 5e b1 3b 7d 17 8b 3d 51 9d 83 bc de b4 e0 3b
       0.005412823 0.067915894 -0.016066225 0.0068574985
000360 f4 a0 98 bc ea 43 1b be e8 d9 8a bd b0 70 52 bd
       -0.018631436 -0.15162626 -0.067798436 -0.051377
000370 ea ea 0b bd d4 1c 3e 3d f1 bf 88 3b 70 87 35 3e
       -0.03415958 0.04641421 0.004173272 0.17727447
000380 46 85 aa bd 84 30 3a 3d 18 a1 fc bd f2 18 e6 bc
       -0.08326201 0.045456424 -0.12335414 -0.028088067
000390 bc 7d 6c bd bf 0c e0 3d 5e a5 49 3d b4 d6 30 be
       -0.057737097 0.10939931 0.049229972 -0.17269403
0003a0 3e 7e 50 3d 1c a0 f2 3c 08 1f 73 bc 03 01 e2 3c
       0.050901644 0.029617362 -0.014838941 0.027588373
0003b0 bd d3 18 3d 41 77 a2 bd 21 fe f4 bb 98 55 44 3b
       0.037311304 -0.07932902 -0.0074765836 0.0029958244
0003c0 d5 25 0c bd a4 43 98 be 9e b5 47 bd e8 b3 dc bd
       -0.034215767 -0.29739106 -0.048757188 -0.10776502
0003d0 49 8d 52 3b e9 c0 a4 3c 68 f6 53 3d 2c e7 08 3e
       0.003212767 0.020111518 0.051748663 0.13369435
0003e0 2e cb af 3b 03 f6 58 3d a5 cb d7 bd 68 3b 3b 3d
       0.005364797 0.05296899 -0.10536889 0.04571095
0003f0 93 6b a5 3c 4a db cc bd 72 e7 80 3d b9 c9 2f 3d
       0.020192897 -0.100027636 0.06294145 0.042916987

fc2.bias f4 [84]
000000 12 f6 00 3e 18 b1 ef 3d 3c 61 9e bd 85 e2 8f bd
       0.12593868 0.117037 -0.0773339 -0.07025627
000010 21 40 60 3d 1c d6 bf 3d d8 ee 4f 3d f4 d5 1c 3e
       0.054748658 0.0936701 0.05076489 0.15315992
000020 a8 2e b4 bc d8 04 bf 3d 35 c6 c4 bd 82 68 09 3e
       -0.021994904 0.09327096 -0.096081175 0.13418773
000030 b8 b5 34 bd 99 4f 6f 3d 59 fa ec 3d e0 cc 0f bd
       -0.044118613 0.05842552 0.115711875 -0.035107493
000040 ca 68 07 3e 2a 57 85 bd ca c0 b3 bd b5 1c c8 3d
       0.13223568 -0.06510766 -0.08777006 0.097711004
000050 db 18 9d bd bf 4d af 3d b2 27 3a bc 95 49 ff 3b
       -0.076707564 0.08559751 -0.011362003 0.007790754
000060 90 e7 c1 3c a8 6d c6 3d af 5d 5c 3d 37 0a 36 3e
       0.023669988 0.09688884 0.05380028 0.17777334
000070 c6 71 c4 bd b1 df de bc f8 06 57 3e 5f 41 44 be
       -0.09592013 -0.027206274 0.20998752 -0.19165562
000080 58 71 4b bc a8 ab a4 3d 43 18 e7 bd 55 4a ba bd
       -0.01241716 0.08040553 -0.112839244 -0.09096209
000090 12 20 bf 3d d6 47 a8 3d b9 53 29 3e 99 55 ae bd
       0.09332289 0.082168266 0.16535844 -0.0851242
0000a0 fd e6 36 bd a0 34 c1 3c 40 c3 22 3e 40 02 19 3d
       -0.04465388 0.023584664 0.15894794 0.03735566
0000b0 3a 60 79 3c 09 5a 19 bd 2d 5a a9 bd b9 62 e9 3c
       0.015220696 -0.03743938 -0.08269153 0.028489457
0000c0 7f b0 3e 3d b4 4d 8d 3d 94 41 3b bc 81 88 7b bd
       0.04655504 0.06899586 -0.011429209 -0.061409477
0000d0 60 d2 9e 3d 54 a1 22 3e 39 7f 90 3c 2e 15 35 be
       0.077549696 0.15881854 0.01763879 -0.1768386
0000e0 a8 4f fb 3c cb 21 10 3d 9d ee 8d 3d d8 f8 1e 3d
       0.030677631 0.035188477 0.069302775 0.038811535
0000f0 f6 50 60 3d 42 4b ab bd 8a 95 24 3d 7e 37 1b 3d
       0.05476471 -0.08363964 0.040181674 0.03789472
000100 d3 62 8b 3d 74 7b 29 bc 5a 79 d7 3c 8a 11 dc 3b
       0.068059586 -0.010344375 0.026302982 0.006715958
000110 59 36 3b bb e9 fd 6c bd 39 99 49 3d 7c e0 e0 3d
       -0.002856633 -0.057859335 0.04921839 0.10980317
000120 7c 1e 46 bd 7f 1d 01 be 95 a0 26 3e 56 bb 4f 3d
       -0.048368916 -0.12608908 0.16272195 0.050715767
000130 3f 77 38 3d d9 eb 18 3e 80 06 bb bd 11 b1 03 3e
       0.045035597 0.14933719 -0.09132099 0.12860514
000140 7e 75 11 bc cb ef 98 3c a3 29 8b bc 0e d7 50 bd
       -0.00887811 0.01866903 -0.016987627 -0.050986342

fc3.weight f4 [10, 84]
000000 4c 38 8a be ae 7e 8a 3a 8a b6 21 3e 24 f3 ba 3c
       -0.26996076 0.0010566318 0.1579229 0.022821017
000010 74 38 8f 3d 58 1d 1d be ab 41 8f bc 02 d7 2f bc
       0.069931895 -0.15343225 -0.017487368 -0.010732414
000020 77 2b 73 bd 72 78 57 3c 05 1c 88 bb 48 f7 d6 3c
       -0.059367623 0.013151275 -0.004153731 0.02624096
000030 35 10 22 3d b6 3c 33 3b b4 de b6 3d f2 fd 93 bd
       0.039566237 0.002734942 0.08929196 -0.072261706
000040 2d 87 98 bd 3d a0 ab 3c d8 5b 94 bd 31 fd 20 bd
       -0.07447658 0.020950431 -0.0724408 -0.039303962
000050 77 15 0e 3d 1d da 36 bd 58 54 8a 3d 52 4d 93 bd
       0.03468844 -0.044641603 0.067543685 -0.07192482
000060 7f 8d 87 3d a6 f6 71 3d f6 3b 16 3e 87 ac ca bd
       0.06618785 0.059073113 0.14671311 -0.09896188
000070 7e 5c 9c bc ac 79 90 be e9 48 36 be 69 d3 01 3c
       -0.019087072 -0.28217828 -0.1780125 0.007923939
000080 67 42 2a be b8 96 8a bd e8 33 64 3d 4d 20 8a bd
       -0.16626893 -0.067670286 0.055713564 -0.06744442
000090 81 7c 65 3d 03 09 f7 bc 92 b7 d0 3c e6 ed 15 3d
       0.05602694 -0.030155664 0.025478158 0.03660383
0000a0 34 f1 10 3e 7f ee da bd d5 c7 7d bb 93 11 07 bd
       0.14154512 -0.10690021 -0.0038723846 -0.032975744
0000b0 03 5d 4a be 5e 07 05 3d 8c f7 55 bc b9 78 44 bc
       -0.19762044 0.03247773 -0.013059508 -0.011991673
0000c0 4e 8b b6 3d be dc 82 3d d1 c4 1b bd 43 6c 44 3d
       0.08913289 0.063897595 -0.038029496 0.04795481
0000d0 e1 7c ca bc 12 b9 8e bd 42 24 d1 bc 8e 0a 4a 3e
       -0.02471775 -0.06968893 -0.025529984 0.19730589
0000e0 4e c8 f4 bc 48 8f b8 bd c8 af 5a bc f5 36 86 be
       -0.029880669 -0.09011704 -0.013347574 -0.26213804
0000f0 92 f3 29 3e e2 84 31 be 7d c1 b8 be e6 b8 3f bd
       0.16596821 -0.17335847 -0.3608512 -0.046807192
000100 1e 1c d2 bd 39 92 aa 3d 05 31 b6 3d 81 9a 1c 3d
       -0.10259269 0.08328671 0.088960685 0.038233284
000110 8d 5b 23 be 63 94 65 bd 81 d3 a3 3d 57 2c 13 be
       -0.15952893 -0.056049716 0.079993255 -0.14372383
000120 e7 7f 86 bd f0 ae a0 bc 0a a6 a8 3d c0 9c 8a be
       -0.06567364 -0.019614667 0.082347944 -0.27072716
000130 13 41 96 3d 75 8a ae bd 96 50 80 bd be 95 fb 3d
       0.07336631 -0.08522502 -0.062653705 0.122844204
000140 fe d3 8b bc d1 5b 93 bd 5f bd 36 3e 88 39 dc 3d
       -0.01706886 -0.07195247 0.17845677 0.10753161
000150 30 63 fe 3c 2a a6 51 be 82 8b 69 3d 25 69 f4 bc
       0.031053156 -0.20473543 0.05701781 -0.029835293
000160 1a b9 5e 3c a8 1d d1 3b 0b 9e c1 3d 67 87 81 be
       0.013593936 0.006381709 0.094539724 -0.25298616
000170 9d bd 04 bd e4 4f ac b8 0a 06 49 bd 75 14 f6 bd
       -0.03240739 -8.21648e-05 -0.049078025 -0.120156206
000180 0b 1d 99 bd 16 7a 6f be 92 86 99 be b5 01 a4 bc
       -0.07476243 -0.23386416 -0.29985482 -0.020020345
000190 f6 8d 21 bd bc b9 57 3e d6 e3 0f bd 7b 6f 04 3e
       -0.039442025 0.21066946 -0.03512939 0.12933151
0001a0 44 bf c6 bb 6b 87 25 bd 9b 4c 23 be 68 21 99 be
       -0.006065281 -0.040412348 -0.15947191 -0.299083
0001b0 d7 19 20 bd be df 7e be ed c2 1a 3e c7 6f af be
       -0.039087143 -0.24890038 0.15113421 -0.34264967
0001c0 a9 c3 30 be 98 3b 95 be d2 95 d1 bd 3f 96 4e 3e
       -0.17262138 -0.2914703 -0.10233654 0.20174502
0001d0 65 16 81 be 91 21 35 3d 0d ed ab bd ce 23 57 be
       -0.25212398 0.044221465 -0.08394823 -0.21009752
0001e0 53 25 42 3d 94 42 29 be 23 7e b3 3d dd 68 7a 3d
       0.047398876 -0.16529304 0.08764293 0.06113516
0001f0 c4 e0 01 3e 13 78 92 be 48 3e db bd 31 f6 25 be
       0.12683398 -0.28607234 -0.107052386 -0.16207196
000200 5d e6 6b 3d 71 3f 3a 3e 32 ee 2b bd 56 bb 9c be
       0.05759274 0.18188263 -0.041975208 -0.30611676
000210 a2 73 44 be 38 fb a7 be 40 12 83 be a3 10 ea bd
       -0.19184735 -0.32808852 -0.2559986 -0.114289545
000220 df fa 7e 3d 60 19 21 be 81 b4 6f be 6a b1 71 be
       0.062250968 -0.15732336 -0.234087 -0.23602834
000230 b2 3c 0a bd 14 11 2c 3e dc e3 84 bd 4f 54 e8 3e
       -0.03374929 0.1680339 -0.06488773 0.45376822
000240 c8 a8 86 be 1b 61 b3 bb 46 02 92 be 0a 2c 1e be
       -0.26300645 -0.0054742224 -0.2851736 -0.15446487
000250 b5 a0 28 3e 28 9b cf be b3 f6 d9 bb 09 ab ec be
       0.16467555 -0.40548062 -0.0066517233 -0.4622424
000260 b5 f3 b6 bd 91 1f 99 bc 7f c6 17 3c ac 05 86 3c
       -0.08933202 -0.01869181 0.009263634 0.016360126
000270 0a 3d 6d 3c cd cf 3b 3d 3d bd 99 be fc 6f 1c be
       0.014479885 0.04585247 -0.3002719 -0.15277094
000280 8e c1 8f 3d 00 97 ac bd 8c 41 81 3d f8 03 d7 bc
       0.070193395 -0.084272385 0.0631133 -0.02624701
000290 29 15 a7 bd bd 60 f3 bd 1f 5a d1 be 91 38 51 be
       -0.08158333 -0.11883686 -0.4088907 -0.20431735
0002a0 82 3d bc be 10 62 11 be 4e 13 1e 3e 2c 3d 02 3d
       -0.36765677 -0.14197564 0.15437052 0.03179662
0002b0 7c d9 f1 3d 6e a9 25 be 99 49 4b bd ac 0c 0f be
       0.1180906 -0.16177914 -0.049630735 -0.13969678
0002c0 dd 28 91 3d d6 a3 84 3d 98 6e be 3c 02 17 e2 3d
       0.07087872 0.06476562 0.023246095 0.11039545
0002d0 60 cb 2e bd 92 63 c3 bd e5 71 af 3d ae 47 cc bd
       -0.042674422 -0.09540476 0.085666455 -0.09974609
0002e0 30 0a 86 3d 7a 53 97 bd 17 97 fc bc d0 fd 3f be
       0.06544912 -0.07388969 -0.030833764 -0.18749166
0002f0 35 76 c7 bd 3b 89 5f bd 8c ca 00 be e4 f9 9d 3c
       -0.09739343 -0.054574233 -0.12577266 0.019284196
000300 d9 a1 c1 bd 42 4d 03 3d 05 ec 8d be 6b c2 d9 3c
       -0.09454698 0.0320561 -0.2771913 0.026581964
000310 98 fb 0b be 9b 9f a1 be 39 f6 bf 3d d5 f2 48 bd
       -0.13670194 -0.31567082 0.09373135 -0.049059708
000320 23 a3 91 3d be 8b 19 bd e5 55 61 bc c5 9a 9b be
       0.07111194 -0.037486784 -0.013753389 -0.30391517
000330 ad 80 d7 bc c0 3a a9 be 82 14 a6 bc 44 4c 9a bb
       -0.026306475 -0.33052635 -0.02027345 -0.0047087986
000340 71 9a 9c 3d 70 13 0b be e3 27 a4 be a7 ba 1b 3d
       0.07646645 -0.13581634 -0.3206168 0.038019802
000350 d0 7c 03 be fd db 9e bd ad b7 9f 3d f6 97 2f be
       -0.12840581 -0.07756803 0.07798705 -0.17147812
000360 3f 6b ac be d9 22 41 3d a1 29 d9 3d 29 bb a9 3d
       -0.33675572 0.047152374 0.10603643 0.08287651
000370 d1 e9 83 bd 44 3e 20 bc dc 02 4d be 77 f8 07 be
       -0.06441081 -0.00978047 -0.20020622 -0.13278376
000380 cf 9c 04 3d 54 67 5a bc 6e 86 3c 3e fa 21 50 bd
       0.032376107 -0.013330299 0.18410656 -0.050813653
000390 a7 d0 7a bd ba ef 0f be 2d 9e d8 be 3b 52 f7 bc
       -0.061234143 -0.14056292 -0.4230818 -0.030190578
0003a0 99 c3 b3 3d b6 9f a3 bd 59 56 19 3e 2b d9 16 3e
       0.08777542 -0.07989447 0.14974345 0.1473128
0003b0 05 14 59 be 1f 76 bb bc d0 34 87 be 99 0a c0 3d
       -0.21199043 -0.022883473 -0.2640748 0.09377021
0003c0 4a 46 eb bd 35 df 1c bb e2 ef 03 3e d2 4a 00 3c
       -0.11488016 -0.0023936753 0.12884477 0.007830339
0003d0 fb ae 13 3e 9d 7b b5 bc d0 ac 4a be ea d9 d5 bd
       0.14422219 -0.02215367 -0.19792485 -0.104419544
0003e0 92 44 36 bd d8 fb 06 be 8f 11 b1 bd e8 a4 07 bd
       -0.044498987 -0.13182008 -0.08645927 -0.03311625
0003f0 12 4a 7b bd 25 95 80 be 74 3c 10 be df e9 c3 bd
       -0.061349936 -0.25113788 -0.14085561 -0.09566092

fc3.bias f4 [10]
000000 0c 4e 62 bc 6d 49 13 be 98 e6 8d bd 36 16 32 3e
       -0.013812553 -0.14383478 -0.06928748 0.17391285
000010 2a cf 40 bd ca 18 f2 bd 69 3d a0 3d 34 3f 91 3c
       -0.047072567 -0.118211344 0.07824213 0.017730333
000020 a4 8c ff 3d 43 6c 36 bd
       0.12477997 -0.04453684
