models/fashion_mnist_cnn_16_filters_32_batch.pth (torch, 854300 bytes, 10 tensors)

conv1.weight f4 [16, 1, 5, 5]
0	0x3e844c19	0.25839308
1	0x3e84c5b8	0.25932097
2	0x3e980115	0.29688326
3	0xbdad2356	-0.084540054
4	0xbe5930e6	-0.2121006
5	0x3d37dd67	0.04488888
6	0xbcd6695e	-0.02617329
7	0xbcf589ff	-0.029973028
8	0x3e23c295	0.15992196
9	0x3dc4c5d6	0.09608047
10	0xbe438afd	-0.19095989
11	0xbe9e94be	-0.30972856
12	0xbdb37ccb	-0.08764037
13	0xbdf744f1	-0.120736964
14	0x3de6431c	0.11243269
15	0xbe899459	-0.26870993
16	0xbecf2999	-0.40461424
17	0xbea71e27	-0.32640192
18	0xbd596db0	-0.05308312
19	0x3e3c63b7	0.18397413
20	0xbd21e1c6	-0.039521955
21	0x3d9824bc	0.074288815
22	0xbcf0c7d8	-0.029392168
23	0x3e2706fa	0.16311255
24	0xbd6f7559	-0.05846152
25	0x3d80e523	0.06293704
26	0xbe4b5805	-0.19857796
27	0x3e8d0a44	0.27546895
28	0x3c68b6e2	0.014203759
29	0xbdecce88	-0.1156283
30	0x3c34ad5b	0.011027659
31	0xbdbdf952	-0.0927607
32	0x3dbc5b99	0.09197158
33	0x3e791cdd	0.24327417
34	0xbe87aef1	-0.26500657
35	0xbe481b9a	-0.19541779
36	0x3d79180b	0.060813945
37	0x3ea62a99	0.32454374
38	0xbe38250c	-0.17982882
39	0x3c82b87c	0.01595711
40	0xbdc64743	-0.09681561
41	0xbde8586d	-0.11344991
42	0x3ed66ea1	0.41881278
43	0xbe425907	-0.18979274
44	0xbd2c331c	-0.04204093
45	0xbafe33e2	-0.0019394124
46	0xbd8548be	-0.06508015
47	0x3e28ac1f	0.16471909
48	0x3c2692fd	0.010166881
49	0xbdcebc56	-0.10094516
50	0xbecb72e4	-0.39736092
51	0xbe02724a	-0.1273891
52	0x3dd1253f	0.10212182
53	0x3d72a369	0.05923787
54	0xbccbd89a	-0.024883557
55	0xbea13273	-0.31483802
56	0x3eacdc68	0.33761907
57	0x3e5b5cb3	0.2142208
58	0x3d284712	0.041083403
59	0x3e775b73	0.24155979
60	0x3e92bc36	0.2865922
61	0x3d3d86e8	0.046271235
62	0x3d00c448	0.03143719
63	0x3dcd9ee0	0.100400686
64	0xbe52b9da	-0.20578709
65	0x3e84fdb0	0.25974798
66	0x3d9c1bc6	0.07622485
67	0x3c478af0	0.012179121
68	0xbd92b1e3	-0.071628354
69	0xbcaa727b	-0.020806542
70	0x3df6de0a	0.12054069
71	0xbea8cf0c	-0.32970464
72	0xbec9f902	-0.3944779
73	0xbdd30832	-0.103042975
74	0x3d1e291f	0.038613435
75	0x3e7217b7	0.23641859
76	0x3e19d479	0.15022458
77	0xbcdcf530	-0.026972383
78	0x3d149b10	0.03628069
79	0x3dfee87e	0.12446688
80	0xbdc1eb47	-0.09468704
81	0xbdf4aaf1	-0.11946667
82	0xbe1b5123	-0.1516767
83	0xbdc7c986	-0.097552344
84	0x3e05a118	0.13049734
85	0xbdb0852d	-0.08619151
86	0xbec4b06f	-0.38415858
87	0xbece628c	-0.4030956
88	0xbd8e3dbc	-0.06945369
89	0x3eab68a2	0.33478266
90	0x3d9c8a7e	0.07643603
91	0x3d7d343e	0.0618174
92	0xbddcccfa	-0.10781284
93	0x3d50770b	0.05089478
94	0x3da113ce	0.078651056
95	0x3e788347	0.24268828
96	0xbdfdcfa7	-0.12393122
97	0xbc58ab64	-0.013224456
98	0x3dec31c8	0.115329325
99	0x3d93740e	0.0719987
100	0xbd55c435	-0.05218907
101	0x3bd5e69f	0.0065277363
102	0x3df81d34	0.12114945
103	0x3e53a741	0.20669271
104	0x3e2790b0	0.16363788
105	0xbe94fabb	-0.29097542
106	0xbd00dfce	-0.031463437
107	0xbd4f7947	-0.05065277
108	0x3e40c4ef	0.18825124
109	0x3ea008ad	0.3125662
110	0xbee97366	-0.45595855
111	0x3e037a6c	0.12839669
112	0x3e5c2011	0.21496607
113	0x3decc498	0.11560935
114	0x3e6a6167	0.22888719
115	0x3d3409cb	0.04395465
116	0xbdb354c7	-0.08756404
117	0x3c9b6b63	0.018972104
118	0xbdaa577c	-0.083174676
119	0xbdf199f5	-0.11796943
120	0xbe3d4c38	-0.18486106
121	0x3db9e0a3	0.09076049
122	0x3e2cb09f	0.1686425
123	0x3cb96cea	0.022634942
124	0xbe260772	-0.16213778
125	0xbe337af6	-0.17527375
126	0x3d167809	0.03673557
127	0x3e6202dc	0.22071403
128	0xbcc4908b	-0.023994705
129	0x3bb51645	0.0055263364
130	0x39810354	0.00024607277
131	0xbe149401	-0.14509584
132	0x3ed17717	0.4091117
133	0xbe2b403a	-0.16723719
134	0xbd46a0f1	-0.04849333
135	0x3e648ba4	0.22318894
136	0x3e9e0dda	0.30869943
137	0x3dacf46a	0.08445056
138	0xbee647e2	-0.44976717
139	0xbe3d8032	-0.18505934
140	0x3d931b59	0.071829505
141	0x3ceb9b1a	0.028760482
142	0x3de0d5e2	0.10978295
143	0xbed5fc8b	-0.41794237
144	0x3e59ab15	0.21256669
145	0xbdea36b6	-0.114362165
146	0x3d22d8a3	0.039757382
147	0x3d2c7da8	0.042112023
148	0xbe9b6a17	-0.30354378
149	0x3ead1889	0.3380778
150	0xbd3585c8	-0.044317037
151	0x3e071333	0.13190918
152	0xbdb41a60	-0.08794093
153	0x3d25d176	0.04048296
154	0x3c6a72ff	0.014309644
155	0xbe648bd7	-0.2231897
156	0x3e77ac0f	0.24186729
157	0x3e1e8eec	0.15484208
158	0xbe2a8222	-0.16651204
159	0xbe9f9a87	-0.31172583
160	0xbe819641	-0.25309947
161	0x3e94122c	0.28920114
162	0x3e9821d4	0.2971331
163	0x3d8bee3d	0.0683255
164	0xbecba15e	-0.3977155
165	0x3d1ed33a	0.03877566
166	0x3e7a6617	0.24453007
167	0x3da9811b	0.08276578
168	0x3e5a23e0	0.21302748
169	0xbe3fae82	-0.18718913
170	0xbdfd6b9a	-0.12374039
171	0x3e5421bf	0.20715998
172	0xbe247364	-0.16059643
173	0x3e1793d5	0.14802487
174	0xbe3ec22b	-0.18628757
175	0x3d9b359f	0.07578587
176	0x3dc7785f	0.09739756
177	0x3dd5181e	0.104049906
178	0xbde60289	-0.11230952
179	0x3da16e83	0.078824066
180	0x3df356be	0.11881779
181	0x3d37dbbf	0.0448873
182	0xbd8d677d	-0.069045044
183	0xbe3c4da6	-0.18388996
184	0xbe3a1a1f	-0.18174027
185	0xbe13b589	-0.14424719
186	0xbdc3f57c	-0.09568307
187	0x3c31179a	0.01080885
188	0xbe91e034	-0.28491366
189	0xbe3778cc	-0.17917174
190	0x3d1eb2cd	0.038744736
191	0x3e046aae	0.1293132
192	0xbe2434ed	-0.16035815
193	0xbe1f1162	-0.15533975
194	0xbc34dd39	-0.011039072
195	0x3e12b08e	0.14325163
196	0xbdcd6b45	-0.10030226
197	0x3e528ffe	0.20562741
198	0xbe0cdb38	-0.137555
199	0xbd18f17a	-0.037339665
200	0x3e3d589e	0.18490836
201	0xbd32524c	-0.043535516
202	0xbd08a92a	-0.033364452
203	0xbe380326	-0.17969951
204	0x3e0cc7f9	0.13748159
205	0xbdfe081c	-0.124038905
206	0xbe084ee5	-0.13311346
207	0xbe643609	-0.22286238
208	0x3e0f7f3d	0.14013381
209	0xbd003ee4	-0.031309977
210	0xbe8b2dbe	-0.27183336
211	0xbe63c641	-0.22243597
212	0x3b63823e	0.0034715082
213	0x3e2824d7	0.16420303
214	0x3b137c2d	0.0022504434
215	0x3c0f5f38	0.008750729
216	0x3e60ffcb	0.21972577
217	0x3d0b404d	0.03399687
218	0xbde301fc	-0.11084363
219	0x3d740d6a	0.059583105
220	0x3e79b1d3	0.24384241
221	0xbdca2733	-0.09870758
222	0x3e43fd3c	0.1913957
223	0xbd12a693	-0.03580339
224	0x3ddc24fc	0.10749242
225	0xbe1f6e07	-0.15569316
226	0xbc36b9ef	-0.011152728
227	0xbd23b11b	-0.039963823
228	0x3e010b6d	0.12602015
229	0x3d967be3	0.07347848
230	0xbdf20b71	-0.118185885
231	0xbc8aae50	-0.016928822
232	0xbe84e8c3	-0.25958833
233	0x3bfd59e3	0.0077316626
234	0x3eabae59	0.33531454
235	0x3da6f547	0.08152252
236	0xbe034cb2	-0.12822226
237	0xbca71a67	-0.020398332
238	0xbc66a7be	-0.014078079
239	0x3d5f7130	0.054551303
240	0x3e1beca5	0.15226991
241	0x3e10110b	0.14069001
242	0xbe201711	-0.15633799
243	0x3e5c890c	0.21536654
244	0xbebfdafe	-0.37471765
245	0xbe52cc2f	-0.20585702
246	0x3e3c047d	0.18361087
247	0x3e09c0ea	0.13452497
248	0x3dc315d0	0.09525645
249	0xbe81b138	-0.2533052
250	0x3d66ccca	0.056347646
251	0xbe78aa41	-0.24283697
252	0xba3d7801	-0.000722766
253	0x3e34744f	0.17622493
254	0x3e4f4996	0.20242915
255	0xbe9109a3	-0.28327665

conv1.bias f4 [16]
0	0xbea758ca	-0.32684928
1	0xbcd19624	-0.025584288
2	0xbcbe29d7	-0.02321331
3	0xbdaba44b	-0.08380946
4	0xbe13308a	-0.14373985
5	0xbce49432	-0.027902696
6	0xbcc2b70b	-0.023768922
7	0xbee70b7d	-0.45125952
8	0xbcbdbcea	-0.02316137
9	0xbba6bea9	-0.0050886464
10	0xbbad7092	-0.0052929604
11	0xbebd25e0	-0.3694296
12	0xbc2ad91b	-0.010427739
13	0xbda97c45	-0.08275656
14	0xbd0ea1c3	-0.034822237
15	0xbe0605bb	-0.13088124

conv2.weight f4 [32, 16, 5, 5]
0	0x3d8a911b	0.06765958
1	0x3cf28f18	0.029609248
2	0xbd9f32dd	-0.07773373
3	0x3c83a5f7	0.01607035
4	0xbd84538c	-0.06461248
5	0xbe04a3a0	-0.12953043
6	0xbd23b492	-0.039967127
7	0x3c650d60	0.01398024
8	0x3cd721d9	0.026261257
9	0xbdd117c6	-0.102096125
10	0xbd8e52ce	-0.069493875
11	0x3d180303	0.037112247
12	0x3e691a5b	0.2276396
13	0x3e76242f	0.2403724
14	0xbd9a221b	-0.07526036
15	0x3dfc105c	0.12307808
16	0x3d737abb	0.059443217
17	0xbce07ab4	-0.02740226
18	0xbd83d5e8	-0.06437284
19	0xbd590a59	-0.052988384
20	0x3dec8db7	0.115504675
21	0x3e1c273e	0.15249345
22	0xbd4292bc	-0.047503218
23	0xbcc376f9	-0.023860442
24	0x3d63cbb8	0.055614203
25	0x3bd13b78	0.006385263
26	0xbd85852f	-0.065195434
27	0x3e74dc21	0.23912098
28	0xbd444ed5	-0.047926743
29	0x3dc20418	0.09473437
30	0xbdeabb2d	-0.11461482
31	0xbe5df64e	-0.21675989
32	0x3debf3a4	0.1152108
33	0xbc443410	-0.011975303
34	0x3dc8420b	0.09778222
35	0x3d969d2c	0.07354197
36	0xbdd5ba64	-0.10435942
37	0xbe0ad002	-0.13555911
38	0xbb4f66de	-0.0031647007
39	0xbb721aea	-0.0036942312
40	0xbce9d3e3	-0.028543418
41	0xbd9d932c	-0.076940864
42	0xbe45af1e	-0.19305083
43	0xbce0a237	-0.0274211
44	0xbd45962a	-0.04823891
45	0xbd83fff8	-0.064453065
46	0xbe3b1447	-0.18269454
47	0x3d4bc607	0.0497494
48	0xbd348bcb	-0.04407863
49	0xbcdef9a2	-0.027218644
50	0x3d22b395	0.039722044
51	0xbd04dd78	-0.03243777
52	0x3dd992ac	0.106236786
53	0xbd2efb94	-0.042720392
54	0xbcd25b38	-0.025678262
55	0x3d1f15df	0.038839217
56	0x3d965fe8	0.073425114
57	0x3e50d938	0.20395362
58	0x3b1122f3	0.0022146075
59	0xbcf70354	-0.030152954
60	0x3dde4753	0.10853448
61	0x3c0719c0	0.008245885
62	0xbddfe332	-0.10932006
63	0xbd731ab4	-0.059351638
64	0x3da719f8	0.0815925
65	0xbddad4bf	-0.10685109
66	0xbe1e6e11	-0.15471675
67	0xbe439420	-0.19099474
68	0x3bbf12d0	0.0058311
69	0xbc622807	-0.013803489
70	0x3dde9eaf	0.1087011
71	0x3df535a1	0.119731195
72	0xbe163a66	-0.14670715
73	0x3d7414b4	0.059590057
74	0x3cbc6816	0.02299885
75	0xbe4f3e24	-0.20238549
76	0x3c1cc844	0.009569231
77	0xbddcd6f6	-0.10783188
78	0xbb1cefa7	-0.0023946555
79	0x3bfdf4bd	0.0077501223
80	0xbdc4f151	-0.0961634
81	0x3ce34c5d	0.027746374
82	0xbdcb2e61	-0.099209554
83	0xbde1c94c	-0.110247225
84	0xbd6829ce	-0.056680493
85	0xbe460984	-0.19339567
86	0xbdb54a07	-0.0885201
87	0x3e23ec8d	0.16008206
88	0xbc31b928	-0.010847367
89	0xbcdddca3	-0.027082747
90	0xbe77f99e	-0.24216315
91	0xbe0730d8	-0.13202226
92	0xbc843410	-0.016138107
93	0xbc88d49e	-0.016702946
94	0x3cadd419	0.0212193
95	0xbe55d053	-0.2088025
96	0x3db238c8	0.087022364
97	0xbdd78cf0	-0.105249286
98	0xbd3a47be	-0.045478575
99	0xb8bf3ec4	-9.119281e-05
100	0x3db5b08a	0.08871563
101	0xbd6668a7	-0.056252148
102	0x3d07d45f	0.033161517
103	0x3c7621e6	0.01502273
104	0xbde951a7	-0.11392527
105	0xbd40e500	-0.04709339
106	0xbca5fcc3	-0.020262128
107	0xbd8be8eb	-0.06831535
108	0x3cb0c15d	0.021576578
109	0xbdf07733	-0.117414854
110	0xbdaa4ac3	-0.08315041
111	0xbb0898ae	-0.0020842957
112	0x3da7ed2a	0.08199532
113	0x3dfd0228	0.12353927
114	0xbbb919dc	-0.0056488346
115	0xbcef238c	-0.029191755
116	0xbe4a61cd	-0.1976387
117	0xbdd8406b	-0.10559162
118	0xbc8a1d4e	-0.016859677
119	0xbe5c2f19	-0.21502341
120	0x3cd854ad	0.026407564
121	0xbdbb5775	-0.091475405
122	0xbe49e615	-0.19716676
123	0xbdb64b7c	-0.08901116
124	0xbc6e14ee	-0.014531357
125	0xbd35d4cc	-0.044392392
126	0x3e08a95e	0.13345858
127	0xbd88d7ad	-0.06681762
128	0x3e42e096	0.19030985
129	0x3e32e933	0.17471771
130	0xbddffc79	-0.10936827
131	0x3cd91550	0.02649942
132	0x3cf1883a	0.029483903
133	0x3e142d8a	0.14470497
134	0x3c59831e	0.01327589
135	0x3d2f277f	0.042762276
136	0x3e8281e0	0.25489712
137	0xbe35be64	-0.1774841
138	0xbdba573d	-0.09098671
139	0x3de3b146	0.111177966
140	0x3d303a28	0.043024212
141	0xbbbe8ca1	-0.005815104
142	0x3dd3eca6	0.103478715
143	0xbd5fc76e	-0.05463355
144	0x3dc1dc53	0.09465852
145	0xbdf3c308	-0.11902434
146	0x3d397707	0.04527953
147	0xbde044dc	-0.10950634
148	0xbe0d9f26	-0.13830242
149	0xbc6bdf0b	-0.014396439
150	0xbdf62f63	-0.12020757
151	0xbe72ac11	-0.2369845
152	0x3c4b51ad	0.01240961
153	0x3cdd683a	0.027027238
154	0x3dc23376	0.09482472
155	0x3e11e25e	0.14246508
156	0xbccf51af	-0.025307504
157	0x369a0700	4.5903726e-06
158	0xbd93b216	-0.072117016
159	0x3d88ff00	0.066892624
160	0x3d973212	0.07382597
161	0xbe011a20	-0.12607622
162	0xbeabbcf2	-0.3354259
163	0x3d49a035	0.04922505
164	0xbe096ebd	-0.1342115
165	0x3d5e4ee2	0.054274447
166	0xbc25963e	-0.010106621
167	0xbdea0fbd	-0.11428783
168	0xbd8dcebe	-0.069241986
169	0xbdab1642	-0.08353855
170	0xbe0961ae	-0.13416168
171	0xbe17d201	-0.14826204
172	0xbc6ffdb8	-0.014647894
173	0xbdb8a7a6	-0.090163514
174	0xbd227a35	-0.039667327
175	0x3c9059d3	0.017620957
176	0xbd8fcd62	-0.070215955
177	0xbdb73a92	-0.08946718
178	0xbd82a7eb	-0.06379684
179	0xbd3590b0	-0.044327438
180	0x3e207184	0.15668303
181	0x3d19cb58	0.03754744
182	0x3d584ad4	0.052805737
183	0xbd1a7d33	-0.037717056
184	0xbdd6c3b5	-0.10486547
185	0x3e123487	0.1427785
186	0x3e3e2192	0.18567494
187	0x3d79f7e8	0.061027437
188	0xbe0dd6c7	-0.13851462
189	0xbdf69647	-0.12040382
190	0x3cac492e	0.021030989
191	0x3d9ae147	0.075624995
192	0x3db07e81	0.08617879
193	0xbdbbdc6f	-0.09172904
194	0xbbd67688	-0.0065448917
195	0xbcbffc6e	-0.023435798
196	0xbd2df63c	-0.042471156
197	0xbd0b4d41	-0.034009222
198	0xbdf86b29	-0.12129814
199	0xbd98fe33	-0.0747036
200	0xbd6d4195	-0.057923872
201	0xbdbeaa53	-0.093098305
202	0xbda9a654	-0.08283678
203	0xbb8ed8db	-0.0043593473
204	0xbc2f1d27	-0.010688103
205	0x3e1476b0	0.144984
206	0x3d620ecc	0.055189893
207	0xbdc8dc93	-0.09807696
208	0xbcc89923	-0.024487084
209	0xbc9e2804	-0.01930619
210	0x3dd5a08b	0.10431012
211	0xbd3326ff	-0.04373836
212	0x3cda9d33	0.026686287
213	0x3ccb2882	0.024799589
214	0xbd83d4f5	-0.06437103
215	0xbcd9abbc	-0.026571147
216	0xbd700383	-0.0585971
217	0x3d924c15	0.07143418
218	0x3d6cfb60	0.057856917
219	0xbbe4f245	-0.0069868886
220	0xbc236d03	-0.009974721
221	0x3d69931f	0.05702507
222	0x3d3bde5a	0.045866348
223	0x3d9e27b0	0.077224135
224	0x3d00fafd	0.03148936
225	0x3d91e7f2	0.07124318
226	0x3d47a2df	0.04873931
227	0xbd85e9e7	-0.06538754
228	0x3cf26896	0.029590886
229	0x3da675b2	0.08127917
230	0x3e143717	0.1447414
231	0x3d8e2257	0.069401436
232	0xbe49fa43	-0.19724374
233	0x3de8e04f	0.113709085
234	0x3d4484d9	0.047978256
235	0xbc2a1e00	-0.010383129
236	0x3ecdb452	0.40176636
237	0x3e321eda	0.17394581
238	0x3da70cef	0.08156764
239	0x3da9f9cf	0.082996
240	0xbe379af4	-0.17930204
241	0xbd66095c	-0.05616127
242	0x3e90c84b	0.2827781
243	0x3d0a5227	0.033769753
244	0xbcbbb140	-0.022911668
245	0x3df5c24b	0.11999949
246	0xbd70d867	-0.058800127
247	0x3ddc1a1b	0.10747167
248	0xbcaeeba6	-0.0213526
249	0x3c028911	0.0079672495
250	0xbd9055bc	-0.070476025
251	0xbd8372c3	-0.064183734
252	0x3d691a27	0.056909706
253	0xbdd9c089	-0.10632426
254	0x3d89ecd3	0.06734624
255	0x3beb4104	0.0071793813

conv2.bias f4 [32]
0	0xbdf2dbcf	-0.118583314
1	0xbde29609	-0.11063773
2	0x3d8f66a0	0.07001996
3	0x3a33d9a1	0.00068607373
4	0xbd76dc62	-0.060268767
5	0x3e06eb80	0.13175774
6	0x3d0d35c1	0.03447509
7	0xbd47e784	-0.048804775
8	0xbcef741e	-0.029230174
9	0xbe280f50	-0.16412091
10	0xbc69c92e	-0.014269156
11	0xbdce1db3	-0.100642584
12	0x3dc7bc3a	0.09752698
13	0x3df9d4ee	0.12198816
14	0xbd1302d3	-0.035891365
15	0xbd333d11	-0.04375941
16	0x3e327948	0.17429078
17	0x3e00bc09	0.1257173
18	0xbd0e1f43	-0.034697782
19	0x3dd41620	0.103557825
20	0x3d531706	0.05153563
21	0x3d51a776	0.051185094
22	0x3cdd22fe	0.026994225
23	0x3df59a9f	0.11992382
24	0xbe52095c	-0.20511383
25	0x3e35484d	0.17703362
26	0x3e2297a7	0.15878163
27	0x3c0f934c	0.008763146
28	0x3d771c28	0.060329586
29	0x3e616662	0.22011712
30	0xbe02d209	-0.12775435
31	0x3dde4068	0.10852128

fc1.weight f4 [120, 1568]
0	0xbdb63fd1	-0.08898891
1	0xbde200ef	-0.11035334
2	0xbd86a0d4	-0.06573644
3	0xbda7f25a	-0.08200522
4	0xbd8e1562	-0.06937672
5	0xbc21c40c	-0.009873401
6	0xbdf4d2e2	-0.11954285
7	0xbd44bdb2	-0.04803247
8	0xbd8e93f0	-0.069618106
9	0xbca1295a	-0.019673038
10	0xbd8705a9	-0.065928765
11	0x3bc8d526	0.006128925
12	0x3b1132c4	0.0022155503
13	0xbd925707	-0.071455054
14	0xbd76a553	-0.06021626
15	0xbd97663c	-0.073925465
16	0xbda299fa	-0.07939525
17	0x3bdad88a	0.0066786455
18	0xbce2bdd9	-0.027678417
19	0xbd329781	-0.043601517
20	0xbda290ff	-0.07937812
21	0xbb57699d	-0.0032869347
22	0x3cfdbe4c	0.03097453
23	0xbabe16d1	-0.001450265
24	0x3a2521df	0.00062992977
25	0x3d0fc692	0.03510148
26	0x3d254c5b	0.04035602
27	0xbd429566	-0.04750576
28	0x3d174b12	0.036936827
29	0x3cf83c42	0.03030217
30	0xbca3024d	-0.019898558
31	0xbc0d5d87	-0.008628256
32	0xbd81e2cd	-0.06342087
33	0x3d4f2057	0.05056795
34	0xbd988ab8	-0.074483335
35	0xbdc6c949	-0.09706361
36	0xbceb8a70	-0.028752536
37	0x3bc76f85	0.006086292
38	0x3d3e15e2	0.046407588
39	0x3d059851	0.032615963
40	0xbc1e1143	-0.00964767
41	0xbd7cf6d1	-0.06175882
42	0x3cc451fe	0.023964878
43	0x3db23a0b	0.08702477
44	0xbd4872e3	-0.04893769
45	0xbd202691	-0.03909928
46	0xbdcda65f	-0.100414984
47	0x3d233664	0.039846793
48	0x3cab6df4	0.020926453
49	0xbd0dc2b7	-0.034609523
50	0xbd2536a5	-0.040335316
51	0xbdd4eb26	-0.103964135
52	0xbdb6b479	-0.08921141
53	0xbdc6afd3	-0.097015046
54	0xbd994a47	-0.074848704
55	0xbdb34db1	-0.08755053
56	0x3d9c674b	0.07636889
57	0xbdcd2939	-0.10017628
58	0xbd50390b	-0.05083565
59	0xbd85ea2c	-0.06538805
60	0xbd7fc579	-0.062444184
61	0x3d3848f6	0.044991456
62	0xbd5815bc	-0.052755103
63	0xbd8d2e80	-0.06893635
64	0xbd67cf4d	-0.05659418
65	0xbd90bccd	-0.07067261
66	0xbd37c597	-0.04486617
67	0xbcb708bc	-0.022343032
68	0xbdbaaabd	-0.09114597
69	0x3b88e248	0.0041773655
70	0x3cd419de	0.02589124
71	0x3cc88da6	0.024481606
72	0x3d6a9b4c	0.05727701
73	0x3d0a24af	0.03372639
74	0xbb89fa81	-0.0042107706
75	0xbd1c0f76	-0.038100682
76	0x3cd693eb	0.02619358
77	0xbc8a7ff4	-0.016906716
78	0xbccdb4bc	-0.025110595
79	0xbc8693f3	-0.01642797
80	0xbd602de7	-0.054731276
81	0xbd65ab12	-0.05607135
82	0xbc9fbfb5	-0.019500593
83	0xbd56d6c1	-0.0524509
84	0xbb0dbae8	-0.0021626297
85	0xbccabec4	-0.024749167
86	0x3d841b14	0.06450477
87	0x3d187c7d	0.037228096
88	0x3cf6e1d2	0.030136976
89	0xbce86b61	-0.028371515
90	0xbd382797	-0.04495963
91	0x3cc1273c	0.023578279
92	0xba5cbcb0	-0.00084204506
93	0xbdd1d7ef	-0.10246264
94	0x3c22cbca	0.009936282
95	0xbd432877	-0.047646012
96	0x3b21a09c	0.002466238
97	0xbdb33138	-0.08749622
98	0x3d0a801a	0.033813573
99	0xbc8fdd60	-0.017561615
100	0xbd8eca37	-0.06972163
101	0xbdd0bffb	-0.10192867
102	0xbdc51446	-0.096230075
103	0x3ca8ce83	0.020606285
104	0xbda658bd	-0.08122394
105	0xbdba3342	-0.09091808
106	0xbd9f2d21	-0.077722795
107	0xbde1af30	-0.110197425
108	0xbd4abfb9	-0.049499247
109	0xbdbf5611	-0.09342588
110	0xbd9dc017	-0.07702654
111	0xbcf4b068	-0.029869273
112	0xbda8235b	-0.082098685
113	0xbd7b56c4	-0.061362043
114	0xbc3c108f	-0.011478557
115	0xbd59f70a	-0.05321411
116	0xbcd142d8	-0.025544569
117	0xbe18f315	-0.14936478
118	0xbc84233d	-0.016130084
119	0xbd1d1dcb	-0.03835849
120	0xbc5261d2	-0.012840705
121	0xbd649ae1	-0.055811767
122	0xbd110700	-0.035407066
123	0xbc35a1e8	-0.011085965
124	0xbd6fe24d	-0.058565427
125	0xbce7635c	-0.02824562
126	0xbcd84e7e	-0.026404615
127	0xbd51e275	-0.051241357
128	0x3d73a3ad	0.059482265
129	0x3a6823fa	0.00088554586
130	0x3d4fcd88	0.05073312
131	0xbc410485	-0.011780863
132	0x3d738fde	0.059463374
133	0x3d259682	0.04042674
134	0x3c140ad8	0.0090357885
135	0xbd8edf66	-0.069762036
136	0x3d269cd0	0.04067689
137	0x3d3825d9	0.04495797
138	0x3d7a3c4e	0.061092667
139	0x3d0e41e1	0.034730796
140	0xbd742e7c	-0.059614643
141	0x3d603f77	0.054748025
142	0xbc21bd67	-0.009871817
143	0x3d253461	0.040333156
144	0x3d11907a	0.035538174
145	0xbd629515	-0.055317957
146	0x3c7490a8	0.014927067
147	0xbda6d5c3	-0.081462406
148	0xbdafb531	-0.085794814
149	0xbd73c22d	-0.059511352
150	0xbda2e716	-0.079542324
151	0xbd2b9c5e	-0.04189717
152	0xbdb9d49f	-0.090737574
153	0xbdc43b60	-0.095816374
154	0xbd72ea11	-0.059305254
155	0x3d9211c7	0.07132297
156	0xbd6bb558	-0.05754599
157	0xbd2459ec	-0.04012482
158	0xbaaf7422	-0.0013386051
159	0xbd6768c5	-0.0564964
160	0x3cd78674	0.02630923
161	0xbdfdb6eb	-0.123884045
162	0x3cc9d6a2	0.024638478
163	0xbba0b37a	-0.004904208
164	0xbd368b37	-0.04456636
165	0xbdb78ab3	-0.08962002
166	0x3d5b8842	0.053596742
167	0xbdfdda28	-0.12395126
168	0xbd843c97	-0.06456869
169	0xbcc8c2c7	-0.02450694
170	0xbd7d991f	-0.061913606
171	0x3d83fbfb	0.06444546
172	0xbd595554	-0.05305989
173	0xbdb954ab	-0.09049352
174	0xbdd0e6c9	-0.10200269
175	0xbd8955a6	-0.06705789
176	0xbcd4d246	-0.025979172
177	0x3d075b78	0.033046216
178	0x3d6e5be4	0.058193102
179	0xbd670983	-0.056405555
180	0xbc97094e	-0.018437054
181	0xbd91e288	-0.071232855
182	0xbd874753	-0.06605401
183	0xbdb50b10	-0.08840001
184	0xbd1f70b7	-0.038925853
185	0xbce79695	-0.028270045
186	0xbd225012	-0.039627142
187	0xbd9296b8	-0.071576536
188	0xbe13c465	-0.14430387
189	0x3dbd3a4f	0.09239637
190	0xbce902f6	-0.028443795
191	0xbc81d0af	-0.015846578
192	0xbd06b196	-0.032884203
193	0x3c0cc357	0.0085914945
194	0x3ca90f44	0.020637162
195	0xbca69755	-0.020335833
196	0x3d69c00e	0.057067923
197	0x3d7a042f	0.061039146
198	0x3a8d54d4	0.0010782727
199	0xbd2ee2b7	-0.04269668
200	0x3d7906ba	0.06079743
201	0x3d35a54b	0.04434709
202	0x3bf39501	0.007433534
203	0x3bfcc949	0.0077144247
204	0xbd4e7f60	-0.050414443
205	0xbdb1d507	-0.0868321
206	0xbd4ac35f	-0.049502727
207	0xbd1bdbce	-0.03805142
208	0xbd3bb675	-0.0458283
209	0xbd7a5d8c	-0.06112437
210	0xbcd4dea2	-0.025985066
211	0xbce992ed	-0.028512442
212	0x3c422c6a	0.011851409
213	0xbc513337	-0.012768558
214	0x3cdb4943	0.026768332
215	0xbc731aa5	-0.0148378955
216	0xbd8bbf2e	-0.06823574
217	0x3cd88f4c	0.026435517
218	0x3cfc259f	0.030779658
219	0xbd6a8e46	-0.05726459
220	0xbd086634	-0.033300593
221	0x3b81ec2f	0.003964923
222	0x3ccf0b79	0.025274025
223	0xbdd98378	-0.10620779
224	0x3b77567b	0.0037740755
225	0x3c8f1dab	0.017470201
226	0xbbff831e	-0.007797613
227	0xbd3a92cc	-0.045550153
228	0xbce3238d	-0.027726913
229	0xbb171514	-0.0023053335
230	0xbddf8c84	-0.10915473
231	0xbbbd952a	-0.005785604
232	0xbdd90dc8	-0.10598332
233	0x3c131f4e	0.008979632
234	0xbdaabd61	-0.083369024
235	0xbd9cf6b3	-0.07664242
236	0x3d80e837	0.062942915
237	0xbdebefef	-0.11520373
238	0xbd8c5e95	-0.068539776
239	0xbdb0d00d	-0.086334325
240	0x3d161ed2	0.036650486
241	0x3c8231bf	0.015892861
242	0xbc5a64ea	-0.013329724
243	0x3d50423c	0.050844416
244	0xbc4fba4f	-0.012678697
245	0x3d3dcb54	0.046336487
246	0xbd689afe	-0.056788437
247	0xbd129fa3	-0.035796773
248	0xbd0eab24	-0.03483118
249	0xb9157a0c	-0.00014255213
250	0x3c199021	0.009372742
251	0xbc3790a7	-0.011203921
252	0x3df78d44	0.12087491
253	0x3d053643	0.03252245
254	0xbcb3bea1	-0.021941485
255	0xbdddc117	-0.108278446

fc1.bias f4 [120]
0	0xbdbdca80	-0.092671394
1	0x3dc482c2	0.095952526
2	0x3da83212	0.08212675
3	0x3d97258e	0.0738021
4	0xbc5e2971	-0.013559685
5	0xbd0b4c51	-0.034008328
6	0xbd87de59	-0.06634206
7	0x3b10972a	0.0022062757
8	0xbce14b1d	-0.027501637
9	0x3d385239	0.04500029
10	0x3da1a9f3	0.07893743
11	0xbce260c8	-0.02763404
12	0x3c8a9d3e	0.016920682
13	0x3d736f97	0.059432592
14	0x3c95221c	0.018204741
15	0xbc482353	-0.012215453
16	0xbd4939d2	-0.049127407
17	0xbd36a04e	-0.044586472
18	0x3c78756d	0.015164715
19	0x3ce84282	0.028352026
20	0x3d2f0494	0.042728975
21	0x3d8f50b4	0.06997815
22	0xbd69cb22	-0.05707849
23	0x3d21547a	0.039387204
24	0xbc81c41c	-0.015840583
25	0xbcfd6b1d	-0.030934865
26	0x3cd9463d	0.02652275
27	0xbc04c902	-0.008104565
28	0x3b358424	0.002769717
29	0x3db66134	0.08905259
30	0x3d617b68	0.05504933
31	0x3da648f8	0.081193864
32	0xbb498cc7	-0.0030754076
33	0x3b8f3aac	0.004371008
34	0x3c6670ed	0.01406501
35	0xbd818fb6	-0.06326239
36	0x3d575f21	0.052580956
37	0xbcc5fcfd	-0.024168486
38	0xbb9f93b0	-0.0048699006
39	0x3d711d91	0.058866087
40	0x3d8c780f	0.06858837
41	0x3be8183c	0.007082967
42	0x3d26e7ed	0.040748525
43	0x3d55fc94	0.05224283
44	0x3cf0dade	0.029401239
45	0x3d463390	0.048389018
46	0x3d96423e	0.073368534
47	0xbb337566	-0.0027383207
48	0x3ccc0df8	0.024909005
49	0x3d729787	0.05922654
50	0x3b050362	0.0020296206
51	0x3d27ea3e	0.040994875
52	0xbc26ad41	-0.010173143
53	0x3c4b337d	0.0124024125
54	0x3d98f7a4	0.07469109
55	0x3c679d1a	0.014136577
56	0x3d3dc06b	0.046326082
57	0xba0cc8d6	-0.0005370503
58	0x3d2d99f0	0.042383134
59	0x3c297289	0.010342249
60	0xbcfe6243	-0.031052714
61	0x3c5f6a1b	0.013636137
62	0x3cf336b0	0.029689163
63	0xbce578fe	-0.028011795
64	0xbcd62fcf	-0.026145844
65	0x3de39f20	0.11114335
66	0x3dc57501	0.09641457
67	0x3d448439	0.04797766
68	0xbd1b678c	-0.037940547
69	0xbcb86a3f	-0.0225116
70	0x3d922c7f	0.07137393
71	0x3d8179fe	0.06322096
72	0xbd10a261	-0.035311107
73	0x3a9ce55f	0.0011970213
74	0x3c94041c	0.018068366
75	0x3ccfd97e	0.025372263
76	0xbc62dbf2	-0.013846384
77	0x3cbb8f6a	0.022895534
78	0x3bdbb1a3	0.0067045256
79	0xbdd95cbb	-0.1061339
80	0x3c08b7c4	0.008344594
81	0xbcb9664b	-0.022631785
82	0xbd1c3daf	-0.038144764
83	0xbc384a1a	-0.011248136
84	0x3d06ffb9	0.03295872
85	0x3c443965	0.011976575
86	0x3ddce0db	0.10785075
87	0xbd2c7eff	-0.0421133
88	0x3c9186ca	0.017764468
89	0xbc5fc14c	-0.013656925
90	0x3d23ed9c	0.040021524
91	0xbd8378ed	-0.06419549
92	0xbcd86c7f	-0.026418922
93	0x3c899706	0.016795646
94	0x3c6668f0	0.014063105
95	0xbd829b92	-0.06377329
96	0x3d00b3b5	0.031421382
97	0x3d5b6708	0.053565055
98	0xbcce6191	-0.025193008
99	0x3c83ecb6	0.016104084
100	0xbbadb839	-0.005301502
101	0xbc39d6f6	-0.011342755
102	0xbd077f96	-0.03308066
103	0x3c89cd42	0.016821507
104	0x3cfa1f0b	0.03053238
105	0x3d853e88	0.065060675
106	0xbc888cd9	-0.016668724
107	0x3c39731b	0.011318947
108	0x3d6a4251	0.05719215
109	0xbca41db9	-0.020033704
110	0x3cf1fa64	0.02953834
111	0x3d81ea48	0.06343514
112	0x3d90173a	0.0703568
113	0xbd007a96	-0.031366907
114	0x3d0ede30	0.034879863
115	0x3920b5ce	0.00015326517
116	0x3c7cd9f5	0.015432824
117	0xbd2923ac	-0.041293785
118	0x3d4fa10c	0.050690696
119	0xbc92ca3d	-0.0179187

fc2.weight f4 [84, 120]
0	0xbdc4e59b	-0.09614106
1	0xbd98081d	-0.074234225
2	0xbe1ed410	-0.15510583
3	0xbcf84e45	-0.03031076
4	0x3c774c83	0.015093925
5	0x3c96ed94	0.018423833
6	0x3c3f4779	0.011674755
7	0xbd9b9579	-0.07596869
8	0xbce30f31	-0.027717205
9	0xbd90d512	-0.0707189
10	0x3c95bd0c	0.018278621
11	0x3d56f23c	0.052477106
12	0x3e16e5d9	0.14736117
13	0xbe7ea4aa	-0.24867502
14	0x3dc30b6c	0.09523663
15	0xbd384240	-0.044985056
16	0xbc6dc001	-0.014511109
17	0xbc413233	-0.011791754
18	0xbc6b3fd4	-0.0143584795
19	0xbcbbd51e	-0.02292877
20	0x3ded98b1	0.11601389
21	0x3d867639	0.06565518
22	0x3d31a4f6	0.04337021
23	0x3e309712	0.17245129
24	0x3e7bf77a	0.24606124
25	0xbd7c3c8f	-0.06158119
26	0xbde08c3e	-0.10964249
27	0xbd493354	-0.049121216
28	0x3d20177d	0.0390849
29	0x3d4f2e80	0.050581455
30	0x3ddb8c70	0.10720146
31	0xbcbd2d84	-0.023092993
32	0x3d2f7f52	0.04284603
33	0xbd1dc4ca	-0.03851775
34	0x3e052917	0.13003956
35	0x3de9dac9	0.11418683
36	0xbde1a6a2	-0.11018111
37	0x3c4f21e9	0.012642362
38	0xbd1893df	-0.037250396
39	0xbd01efc1	-0.031722788
40	0xbded0408	-0.115730345
41	0x3cfaaef3	0.030601
42	0xbcc15376	-0.023599368
43	0xbd9058f2	-0.07048215
44	0xbd27be8f	-0.040953215
45	0xbdc6cb76	-0.09706776
46	0xbd0cd0a0	-0.034378648
47	0x3d182510	0.03714472
48	0x3d448268	0.047975928
49	0xbdbcd040	-0.09219408
50	0x3c68bc50	0.014205053
51	0xbdc5844a	-0.09644373
52	0xbc60b60a	-0.0137152765
53	0x3d80e14d	0.06292973
54	0x3df1d7fb	0.11808773
55	0x3d1a6ea5	0.037703175
56	0xbe9a2a2c	-0.301103
57	0xbd8cb66e	-0.06870733
58	0xbbbd6d12	-0.0057808245
59	0xbd77d8a0	-0.060509324
60	0x3c79d3be	0.015248237
61	0xbbbaeda0	-0.0057045966
62	0x3d691dd2	0.056913204
63	0x3e56d093	0.20978002
64	0xbca031fb	-0.019555083
65	0xbe11e504	-0.14247519
66	0xbdec8a11	-0.115497716
67	0x3ddb4f56	0.107084915
68	0xbd0d557e	-0.03450536
69	0x3d3fb618	0.046804518
70	0xbdc92c02	-0.09822847
71	0x3dbc61ad	0.09198318
72	0xbd8ff927	-0.07029944
73	0x3c300a30	0.010744616
74	0xbd4b012d	-0.04956167
75	0x3bcb6b6d	0.0062078745
76	0x3cd5ef72	0.026115153
77	0xbd854687	-0.06507593
78	0x3e0fa7c3	0.1402884
79	0x3d2cc0ff	0.042176243
80	0x3da076d4	0.07835165
81	0xbd357d61	-0.044309024
82	0x3dd3ba52	0.10338272
83	0x3d8cb772	0.06870927
84	0x3dbf1b93	0.09331431
85	0x3b84d05e	0.0040531596
86	0x3dad94e6	0.08475666
87	0x3cbb7857	0.022884531
88	0xbd1e8d33	-0.038708877
89	0x3cdf9c80	0.027296305
90	0xbdb3b56d	-0.087748386
91	0x3c958237	0.018250568
92	0x3d4daaed	0.050211836
93	0xbd9cff03	-0.07665827
94	0x3c77a8c9	0.015115925
95	0x3d8fdb02	0.07024194
96	0xbbc3f310	-0.005979903
97	0x3e08e52d	0.13368674
98	0xbd97160d	-0.07377253
99	0xbd3a294b	-0.045449536
100	0xbce4f061	-0.027946653
101	0xbd429a68	-0.047510535
102	0x3d9b302c	0.075775474
103	0xbcf38295	-0.029725352
104	0x3bf398e9	0.007434
105	0xbe72e512	-0.23720196
106	0xbd58b20f	-0.052904185
107	0x3d6da90d	0.058022548
108	0xbc98a9e4	-0.018635698
109	0xbd63848f	-0.05554634
110	0xbcd0d03c	-0.025489919
111	0x3d69bf8a	0.05706743
112	0x3dbe9159	0.093050666
113	0xbd143f45	-0.03619315
114	0xbda263f4	-0.07929221
115	0x3d09a7d7	0.03360733
116	0x3c72d27a	0.014820689
117	0xbdc49cc5	-0.09600214
118	0xbd9579e1	-0.07298637
119	0xbc1d9edf	-0.009620397
120	0x3d43c0df	0.047791358
121	0x3cfa783f	0.030574916
122	0xbc011c96	-0.007880351
123	0xbdbad668	-0.09122926
124	0x3caadb8e	0.020856645
125	0xbdd28b2a	-0.1028045
126	0xbd7100ed	-0.058838774
127	0x3c0f85ce	0.008759929
128	0x3d41d6ff	0.047324177
129	0xbe2be133	-0.16785125
130	0xbd1c635d	-0.038180698
131	0xbbf6aa14	-0.007527599
132	0x3e204179	0.15649976
133	0xbdabbb0b	-0.08385285
134	0xbc9d725f	-0.019219575
135	0x3d0893e6	0.033344172
136	0xbd3c6e02	-0.04600335
137	0xbdb9a68e	-0.09064971
138	0xbcaefae5	-0.02135987
139	0xbd0d02b3	-0.034426402
140	0x3d9d7517	0.07688349
141	0x3d3dfefa	0.046385743
142	0x3da80b21	0.08205248
143	0x3df96b9a	0.121787265
144	0x3df77486	0.12082772
145	0x3cd5f839	0.026119338
146	0x3e4f896d	0.20267268
147	0x3da8bfd2	0.08239712
148	0x3caff107	0.021477235
149	0x3e110c82	0.14164928
150	0x3e44cfc2	0.19219878
151	0x3e6144f6	0.21998963
152	0xbced97d9	-0.02900307
153	0x3da53965	0.08067588
154	0x3e11ebdd	0.14250131
155	0xbe1179de	-0.14206645
156	0x3dcbea3a	0.099567845
157	0x3d18adb5	0.037275035
158	0x3d43d7fd	0.047813404
159	0xbc3e7e28	-0.011626758
160	0x3da5ce84	0.0809603
161	0xbd8e031b	-0.06934186
162	0xbe069cb8	-0.13145721
163	0x3c4f8380	0.012665629
164	0x3dec0b00	0.115255356
165	0xbd4a825d	-0.04944073
166	0x3df0bd9f	0.11754917
167	0x3d384daf	0.04499596
168	0x3d2bccb0	0.041943252
169	0xbcbb3e43	-0.022856837
170	0xbd2ba3b8	-0.04190418
171	0xbcb24ce9	-0.02176519
172	0xbd23d020	-0.039993405
173	0x3c0c7402	0.00857258
174	0x3c511ec2	0.012763681
175	0xbd8d69b7	-0.06904929
176	0x3c530f1e	0.012882022
177	0xbcae6ba2	-0.021291558
178	0x3e156353	0.1458867
179	0xbd6cce34	-0.057813838
180	0x3bf8941c	0.0075860154
181	0xbc2dd063	-0.010608765
182	0xbdb0255e	-0.08600877
183	0xbd037ea8	-0.03210321
184	0x3bbdbe7e	0.0057905307
185	0x3cb907cc	0.022586726
186	0xbcd928fb	-0.026508799
187	0x3e4947a4	0.19656235
188	0xbdb4ac19	-0.088218875
189	0x3cfc440a	0.030794162
190	0xbdb9dab9	-0.09074921
191	0xbd28fa04	-0.04125406
192	0x3da615c4	0.0810962
193	0x3da64c11	0.08119977
194	0xbc336cdc	-0.010951247
195	0x3d392242	0.045198686
196	0xbd0d8542	-0.034550913
197	0x3c04a345	0.008095567
198	0x3cc44fb5	0.023963789
199	0xbd8a286f	-0.06745993
200	0x3d862106	0.065492675
201	0xbdaa9ced	-0.083307125
202	0xbd451d06	-0.048123382
203	0x3d9ef6f3	0.077619456
204	0x3db788bb	0.08961626
205	0xbd4b83df	-0.04968631
206	0x3d85ab6b	0.06526836
207	0x3c7cbe63	0.015426251
208	0x3d1a3a68	0.037653357
209	0x3d6cd0b0	0.057816207
210	0xbd0fc7ac	-0.03510253
211	0x3d160c2d	0.036632705
212	0x3cbfc863	0.023410982
213	0x3d014213	0.031557154
214	0x3dab028a	0.08350094
215	0xbd728aad	-0.059214283
216	0x3e0b2b2c	0.13590688
217	0x3af87da1	0.0018958339
218	0x3cfdcad8	0.030980512
219	0x3cff5e1d	0.031172806
220	0x3bb26e10	0.0054452494
221	0x3ccc5688	0.024943605
222	0x3d04007c	0.032227024
223	0xbe1e0bd1	-0.15434195
224	0xbd749478	-0.059711903
225	0x3ce4a343	0.02790988
226	0xbd9b6f34	-0.0758957
227	0xbe04ca05	-0.1296769
228	0xbd8d8620	-0.06910348
229	0xbc947ac5	-0.018124947
230	0x3d759092	0.059952326
231	0x3eba8c77	0.3643529
232	0xbd04be8b	-0.03240828
233	0xbcfec4a0	-0.031099617
234	0x3d35c75f	0.04437959
235	0x3bd79bee	0.0065798676
236	0x3db469c4	0.08809236
237	0xbd0c4f6f	-0.03425544
238	0x3d94f7db	0.07273837
239	0x3c95edef	0.018301932
240	0xbd92663d	-0.07148407
241	0xbe4f8769	-0.20266499
242	0x3e0153b7	0.12629591
243	0xbdff9c85	-0.124810256
244	0xbda92f05	-0.082609214
245	0xbd8aa20d	-0.0676919
246	0x3d83567d	0.06412981
247	0xbdb017e8	-0.0859831
248	0x3d0cae29	0.03434578
249	0x3e51b702	0.20479968
250	0x3e46158b	0.19344155
251	0xbd5da488	-0.054111987
252	0x3cbbd11e	0.022926863
253	0xbd0b9483	-0.03407718
254	0xbdaad704	-0.08341792
255	0xbdae01cd	-0.08496437

fc2.bias f4 [84]
0	0xbcb0c81c	-0.021579795
1	0x3dab4479	0.083626695
2	0x3d378fc3	0.044814836
3	0x3e20ab56	0.1569036
4	0xbdc6811d	-0.09692595
5	0x3e038bcc	0.12846297
6	0x3d87f76c	0.06638989
7	0x3de46908	0.111528456
8	0x3e23cb43	0.15995507
9	0xbdafd2ff	-0.08585166
10	0xbccb41ad	-0.02481159
11	0x3d3ccdd1	0.04609472
12	0x3e301112	0.17194012
13	0x3dfa8959	0.12233228
14	0xbd9d48d4	-0.076799065
15	0xbdd4eed8	-0.10397118
16	0xbde84295	-0.113408245
17	0x3dae9e6d	0.08526311
18	0xbd855ef0	-0.065122485
19	0x3d88d294	0.066807896
20	0xbc44c08e	-0.012008799
21	0x3d95a823	0.0730746
22	0x3d082286	0.03323605
23	0x3e217cc8	0.15770257
24	0x3d7be5bd	0.061498392
25	0xbd8e7957	-0.069567375
26	0x3bf038d9	0.0073309955
27	0x3d20d04b	0.039261144
28	0xbbc9bcf9	-0.0061565605
29	0x3d75919c	0.059953317
30	0x3c33fdde	0.01098582
31	0x3c86b32c	0.016442858
32	0x3d2aa7b8	0.041663855
33	0xbd2f4d57	-0.042798366
34	0xbdf2c7b3	-0.11854496
35	0xbd45db70	-0.048304975
36	0xbe181802	-0.14852908
37	0xbda47353	-0.08029809
38	0x3d98b049	0.07455499
39	0x3e065bbd	0.13120933
40	0x3d89ce8d	0.067288496
41	0x3d055f1f	0.032561418
42	0xbd976ca5	-0.07393769
43	0x3de14c10	0.11000836
44	0x3d80d323	0.06290271
45	0xbd411a8e	-0.047144465
46	0x3c9c4c85	0.019079456
47	0x3d7c913a	0.061661936
48	0x38a7a2bc	7.993492e-05
49	0xbda8eefe	-0.08248709
50	0x3de8feca	0.11376722
51	0x3db243f2	0.08704366
52	0x39e604eb	0.00043872683
53	0x3e0f2c45	0.13981731
54	0x3d99a1f3	0.075015925
55	0x3dead843	0.1146703
56	0xbd054423	-0.032535683
57	0xbc5d425d	-0.013504592
58	0xbde8a711	-0.113599904
59	0x3d6354c5	0.055500764
60	0xbda53d1f	-0.080682985
61	0x3ded3203	0.115818046
62	0x3bdb11db	0.006685478
63	0x3dfaa099	0.12237663
64	0xbe2b98cf	-0.1675751
65	0x3d70e576	0.05881258
66	0x3d1ca4c5	0.038243074
67	0x3dc4507b	0.09585663
68	0xbceb4e3a	-0.028723825
69	0xbaedd106	-0.0018143959
70	0x3d0af21f	0.03392231
71	0x3d1ebaef	0.038752493
72	0x3cf4823e	0.02984726
73	0x3dc51ddf	0.09624838
74	0x3e3cbf05	0.18432243
75	0xbdd53759	-0.10410947
76	0x3e0b407d	0.13598819
77	0xbd7d3636	-0.061819278
78	0x3acef107	0.0015788384
79	0xbd3b6910	-0.045754492
80	0xbe02b189	-0.12763037
81	0xbcdd4bb7	-0.027013643
82	0xbc55e34a	-0.013054678
83	0x3cad7f6b	0.021178922

fc3.weight f4 [10, 84]
0	0x3e2569fa	0.16153708
1	0x3e0244fe	0.12721631
2	0xbd10285f	-0.03519475
3	0x3cc22c0c	0.023702644
4	0xbe64fea2	-0.2236276
5	0x3d881764	0.066450864
6	0xbdd2dfe4	-0.1029661
7	0xbe2a7d4d	-0.16649361
8	0xbe042d7f	-0.1290798
9	0xbda4b64f	-0.08042585
10	0xbdaf4efe	-0.085599884
11	0x3dbdb2fa	0.09262653
12	0xbb080d54	-0.0020759897
13	0xbc8be492	-0.017076764
14	0xbe3552fe	-0.1770744
15	0x3d14752d	0.03624456
16	0xbdd8f0df	-0.105928175
17	0x3dbc0353	0.091803215
18	0xbd594af1	-0.053049985
19	0x3ddccd6d	0.10781369
20	0x3d1b7c37	0.037960257
21	0x3df6c4cd	0.120492555
22	0xbd2a51da	-0.041581966
23	0xbd994445	-0.074837245
24	0xbe2cd7cf	-0.168792
25	0x3db0ef6d	0.08639417
26	0xbe5e6e38	-0.21721733
27	0xbdcb12be	-0.09915684
28	0xbd3f2e7c	-0.04667519
29	0x3dbb81d1	0.0915562
30	0xbe368c3c	-0.17826933
31	0xbc686ddf	-0.014186352
32	0xbebb4a4c	-0.36580122
33	0x3dab6ff4	0.08370963
34	0x3c7332a1	0.014843614
35	0x3e4306b0	0.1904552
36	0xbe597c3f	-0.21238802
37	0xbdb9b304	-0.09067348
38	0xbd40b661	-0.04704893
39	0x3d2c7583	0.042104255
40	0x3d3cef13	0.046126436
41	0x3d83baa6	0.06432085
42	0x3e3e8488	0.18605244
43	0x3de4d980	0.11174297
44	0xbe3b3f80	-0.18285942
45	0xbd54c2cd	-0.05194359
46	0x3db7f6e4	0.089826375
47	0xbe7497d7	-0.23886047
48	0xbdf0980d	-0.117477514
49	0x3dc08b45	0.094015636
50	0xbd1dfabb	-0.038569193
51	0x3b14ff54	0.0022735195
52	0xbe452919	-0.19253959
53	0xbd981769	-0.0742634
54	0xbe79e526	-0.2440382
55	0x3e2252f8	0.15851963
56	0xbcdbfa57	-0.02685277
57	0xbda72b7c	-0.08162591
58	0x3d524f9d	0.051345456
59	0x3be3eb94	0.0069555733
60	0x3daf6544	0.08564237
61	0xbd9abd62	-0.07555653
62	0xbd395304	-0.045245185
63	0x3c1b2ca2	0.0094710905
64	0xbdfa8ea3	-0.12234237
65	0x3dbc2e3d	0.09188507
66	0x3de769e9	0.11299498
67	0xbc672459	-0.014107787
68	0xbe1b5740	-0.15170002
69	0xbe2870a7	-0.16449223
70	0x3dac06c4	0.08399728
71	0xbdced3cf	-0.10098993
72	0xbe041dcd	-0.12901993
73	0xbe000cdf	-0.1250491
74	0xbe898bb2	-0.26864392
75	0xbe7b55ad	-0.24544401
76	0xbe15b12e	-0.1461837
77	0x3db3130f	0.087438695
78	0xbdb550b3	-0.08853283
79	0xbd8c0593	-0.06837001
80	0x3cca5af7	0.024701579
81	0xbd5af95d	-0.053460468
82	0xbd9c4292	-0.07629885
83	0xbd05bfd6	-0.032653652
84	0x3cf89e6e	0.030348983
85	0x3d99665b	0.07490226
86	0xbd69aef4	-0.057051614
87	0xbec2a36e	-0.38015312
88	0xbc2de0e7	-0.010612703
89	0x3b1116c5	0.0022138816
90	0x3e44ef67	0.1923195
91	0xbea27942	-0.31733137
92	0xbcddb538	-0.02706395
93	0xbbba9d44	-0.005695017
94	0x3e1df1f8	0.15424335
95	0xbe9f4c66	-0.31112975
96	0xbe87c282	-0.26515585
97	0xbdf95023	-0.12173488
98	0xbe66858b	-0.2251188
99	0xbc90492e	-0.01761302
100	0x3d4a332c	0.049365208
101	0xbea3b8e5	-0.31977
102	0xbe991176	-0.29896134
103	0xbdf5b379	-0.11997122
104	0x3e0334a0	0.12813044
105	0xbed398e0	-0.41327572
106	0xbcf44a52	-0.029820595
107	0xbed2b776	-0.41155595
108	0x3cac160e	0.02100661
109	0x3cdd61e3	0.027024215
110	0xbdacf542	-0.08445217
111	0xbe856108	-0.2605059
112	0xbd9058d0	-0.0704819
113	0x3e00c5f4	0.12575513
114	0xbe50d1ed	-0.2039258
115	0xbdab08a9	-0.08351261
116	0xbe922c0b	-0.28549227
117	0xbe0aa4ad	-0.13539381
118	0x3c5e9177	0.013584486
119	0x3e2010e5	0.15631445
120	0xbe86147e	-0.2618751
121	0xbde800fa	-0.11328311
122	0xbe534856	-0.20633063
123	0xbbb77476	-0.0055986
124	0xbd87f54f	-0.06638586
125	0xbc6c0835	-0.014406254
126	0xbe2129df	-0.15738629
127	0x3d0bedfb	0.034162503
128	0xbe053054	-0.13006717
129	0x3d467c02	0.048458107
130	0xbe841cc2	-0.2580319
131	0xbcb2d3c5	-0.021829495
132	0xbe780e19	-0.24224128
133	0x3daea99e	0.08528446
134	0xbe8c6a0f	-0.27424666
135	0xbc0a6cca	-0.008448789
136	0x3e22e83a	0.159089
137	0x3e1bcac2	0.15214065
138	0xbe975570	-0.2955737
139	0xbeda3739	-0.42620257
140	0xbe1721d4	-0.14758998
141	0xbe254efd	-0.16143413
142	0xbe3c9cb7	-0.18419157
143	0xbe9640da	-0.29346353
144	0xbd07d6b0	-0.033163726
145	0xbc67200a	-0.01410676
146	0x3d520a9a	0.05127964
147	0xbd33c1c9	-0.04388598
148	0xbe178f30	-0.14800715
149	0x3cc8143d	0.024423713
150	0x3d8cbc95	0.06871907
151	0xbe141a60	-0.14463186
152	0x3d9fa2ff	0.07794761
153	0xbe999e09	-0.30003384
154	0xbd861a7d	-0.06548021
155	0x3cd8a2bb	0.026444783
156	0x3dbb284e	0.09138547
157	0x3e1a0539	0.15041055
158	0xbee83829	-0.45355347
159	0xbd3a49df	-0.045480605
160	0xbbca44d7	-0.006172757
161	0xbdff75a9	-0.12473614
162	0xbce8c6a4	-0.028415032
163	0x3e27c30a	0.16382995
164	0xba34d861	-0.0006898698
165	0xbe19a310	-0.1500361
166	0xbd28c16a	-0.04120008
167	0x3e683b80	0.22678947
168	0x3d1784c9	0.03699187
169	0xbdaea17b	-0.08526894
170	0xbdebdafa	-0.11516376
171	0xbe92112f	-0.28528735
172	0xbe32c321	-0.17457248
173	0xbc6a26bc	-0.014291462
174	0xbd011488	-0.03151372
175	0x3dca123c	0.09866759
176	0xbe2f1d69	-0.17101063
177	0x3af0d105	0.001837284
178	0xbd64ef05	-0.05589201
179	0x3d43e6c9	0.047827516
180	0x3e271d62	0.16319802
181	0xbe597e64	-0.2123962
182	0xbe4f0e87	-0.20220385
183	0xbdc729af	-0.097247474
184	0xbd513370	-0.051074445
185	0x3debf6ac	0.11521658
186	0xbd1c2d3d	-0.03812908
187	0x3d5cbf3c	0.053893313
188	0x3d0be4e0	0.03415382
189	0x3e040485	0.12892349
190	0xbe26856e	-0.16261837
191	0x3de216ae	0.11039482
192	0xbe0b58ce	-0.13608095
193	0x3dfa027c	0.12207505
194	0xbe8eb466	-0.27872008
195	0xbe1db094	-0.1539939
196	0xbdc2d9bc	-0.09514186
197	0x3d868655	0.065685906
198	0x3db98664	0.09058836
199	0xbe911125	-0.28333393
200	0xbe2809b8	-0.16409957
201	0xbd88ee93	-0.066861294
202	0x3d1806b8	0.037115782
203	0xbcbaff22	-0.022826735
204	0xbecffb6d	-0.4062151
205	0xbe837b13	-0.25679836
206	0xbdd8e546	-0.105906054
207	0xbdee3b58	-0.11632413
208	0xbdb23800	-0.087020874
209	0xbd96ce74	-0.073635966
210	0xbddbe383	-0.10736754
211	0x3d93a0bb	0.07208391
212	0xbe7c6a71	-0.24649979
213	0xbe719bde	-0.23594615
214	0x3d024139	0.031800482
215	0x3d359b62	0.044337638
216	0x3d3c8aeb	0.04603092
217	0x3ddb5eb0	0.107114196
218	0x3dac6af2	0.08418836
219	0x3c629791	0.013830082
220	0x3da1b383	0.07895567
221	0x3d83e8d0	0.0644089
222	0xbe87386f	-0.26410243
223	0x3d68e76d	0.05686133
224	0xbd8b0184	-0.067873985
225	0xbea12882	-0.31476218
226	0xbc97e189	-0.01854016
227	0x3ca59b28	0.020215586
228	0x3bcd1adb	0.006259305
229	0x3da1fe00	0.07909775
230	0xbe230cbb	-0.15922825
231	0x3d2a9519	0.041646097
232	0xbd33d46f	-0.043903764
233	0x3d19f1f5	0.037584264
234	0x3dca6da2	0.09884192
235	0x3d065c92	0.032803126
236	0x3d480200	0.048830032
237	0xbdd3a0b9	-0.1033339
238	0x3d916751	0.07099784
239	0x3cb5677c	0.022144072
240	0xbe0cb39a	-0.13740388
241	0xbded88a1	-0.115983255
242	0x3dcf71e4	0.10129145
243	0xbe0dfb85	-0.13865478
244	0xbe0880fe	-0.13330457
245	0xbded3f42	-0.11584331
246	0x3c97e803	0.018543249
247	0xbe0f20ba	-0.13977328
248	0x3d406a29	0.046976242
249	0xbdc862bc	-0.09784457
250	0xbc4eedc4	-0.01262993
251	0xbdd6b18e	-0.104830846
252	0xbe352e98	-0.17693555
253	0x3d313f51	0.043273274
254	0xbe9571cb	-0.2918838
255	0xbd9fe837	-0.07807963

fc3.bias f4 [10]
0	0xbd836dc2	-0.06417419
1	0xbe6db68c	-0.23214167
2	0xb7649bc0	-1.3626122e-05
3	0xbd12155e	-0.03566491
4	0xbe01821d	-0.1264729
5	0xbd00f893	-0.03148706
6	0x3c0dc6f5	0.008653392
7	0x3d8fa19c	0.070132464
8	0xbcc7c043	-0.02438367
9	0xbdb54957	-0.08851879
